models/model.pth (torch_old, 65166 bytes, 11 tensors)

word_embedding.weight f4 [19, 30]
00000000: 27c6 05be b554 883e 74d3 1a3e f0f9 37bf
00000010: b753 c5bf c2d3 93bf aedd 35bf 19ee 1040
00000020: ccbc 8c3f 2403 b73f be8b 0cc0 c1b3 2bbc
00000030: a84f 193f 2ce8 a8bd 8537 5bbe 0cce e33e
00000040: 2349 38bf 952f aa3f 67e9 373f 367a 623f
00000050: 4865 f43f 8e98 943e e196 8c3e 1404 3c3f
00000060: 5f7b efbd ccee 6abf e1f7 813e 74a3 92be
00000070: d949 813e db41 eabf 2ce2 3e3f 2692 d83f
00000080: 76e0 ea3e eaf2 72be 23b5 bb3d b828 a6bf
00000090: a93f 523f 77ff 7bbf 7796 b63f 8c94 683f
000000a0: 402a d53e f072 7c3f 5772 84bf 1f51 48bf
000000b0: 4c89 3e3d 4bf8 5fbf 1fd2 1e3f c24b 373f
000000c0: b616 433f 9e02 9c3e 7bd5 bfbf 52ae 8bbd
000000d0: a088 b93e 28ea 2cbf 4991 ba3e 2fb1 943f
000000e0: 46b6 92bf 370b 50bf 9438 c9bf 5701 a0bf
000000f0: 4892 063f 2dc3 fdbd f2d8 f93e f244 ec3e
00000100: 62a7 8dbf 2470 ddbe df3f 7f3f 4d9a b93e
00000110: 67bf a03f 4dd2 70bd d867 9fbe 161f 5c3f
00000120: e2f2 0d40 8147 e0bf 29fd c3bf 450c e03e
00000130: 7c0d a9bf f50f 6b40 d3cb 2c3d 95e5 db3e
00000140: 8187 953e 7f89 703f 3f13 873f bea8 78be
00000150: 6a53 82be 9a23 613d 6e23 b63e c537 76bf
00000160: caa5 a83e 90e5 59bf 9bb3 9c3f 7084 f9be
00000170: 3539 403f 9b6c 453f ce81 74bf 3c3f 643d
00000180: 6563 633f e429 233f 5c3d 63bf 8fb0 873e
00000190: b648 6fbc 50ae f23f f56e 04c0 d3bd fdbc
000001a0: 83b1 523f d82e 2a3f f5e7 cabf 8be3 c0bf
000001b0: 8afe e7bf 8e38 a23f 2649 3b3f 74a1 8dbf
000001c0: 4d2a 9bbf 3d24 e2bf e228 0abf 7285 dbbe
000001d0: 1138 1ec0 046f 493f 0e37 a63f f633 3e3f
000001e0: 6b82 edbe 2097 6a3f 3454 993e 4db9 0b3f
000001f0: d2ea fdbe ae88 dbbe 004d 983f f89d 133f
00000200: 8143 14bf 6d3b 80bf 1e0b 00bf ba60 9cbe
00000210: bdba 553f 8d44 6cbe eaa8 c8bf f904 063f
00000220: 4c49 e5bd 6057 29bf 24c5 f53f 493e 4e3e
00000230: 0c31 893d 76c9 343f facd c73f 9b9e 253f
00000240: edff 023f d4f9 fc3e 8d48 4a3d d85e 52bc
00000250: f591 ab3e 84e9 0ebf a4ac 92bf a554 3c3f
00000260: 5ee1 113f dc37 113e a758 6b3e bb3e 613f
00000270: 07e9 553f 8076 6c3f ba07 99be 5fc3 6cbf
00000280: 529b 55bf f502 0cbf 8bf8 933f d7e9 8dbe
00000290: 8933 d5be 400a 4a3e f720 81bc b7a3 ae3f
000002a0: c418 083f 07f5 ee3e d2b1 443f 30ee 2b40
000002b0: 10f5 013f 930e 32be e1d6 18bc a6ac 8a3f
000002c0: e252 f7be 430e 1f3e 3d19 b4bf a2ad 163f
000002d0: 7ffe a73f fdb1 c13d 16ce 07be 97c9 1f3f
000002e0: 93ba 0540 8953 90bf 7e59 8fbe b1db d4be
000002f0: 6f5a d6be 213d 3c3f de82 ad3c 9a4e e73f
00000300: ecfa 0e3f 5fc5 f53d a674 f53e 67c9 8dbf
00000310: 6c8c b6be e138 31be 3909 b8bf 363c a8be
00000320: d1cf 3b3f ba95 dcbf 5a6d aabd d900 0cc0
00000330: 690d af3e 2906 58bf ad79 d1be 224f fe3f
00000340: d737 0cbf fa40 e8be f92d 7a3f d70b e73f
00000350: 424c 373f 67b5 f6bd 83c0 bebf add4 0dc0
00000360: 19b9 e8bf 4b08 16c0 d74a 9b3f fe11 9f3f
00000370: 18aa ebbf 30a6 c13f 9fae d83f 23fc 0ebd
00000380: 054a cabc 8a9c eebe 7834 693e d3a7 6abf
00000390: 64ed a2bd 4876 81bf 3a8f af3f 1f0d e23e
000003a0: cf4e 0cc0 e8fe 213f 2ced 9f3f eaf8 adbf
000003b0: ee39 a83f b16b 5d3f ef67 32be 4800 b13e
000003c0: c2e3 2040 34da 0c3f cd67 7a3e 9fc8 ad3e
000003d0: 102e 3dbf 3658 dcbf 75d6 683f d681 623f
000003e0: 6981 9a3f d033 383f e897 8abf 9c73 523d
000003f0: 81af 833f 2c08 c93f 0643 0f3e b703 a53f
-0.1306387 0.26627126 0.15119725 -0.7186575 -1.5416173 -1.1548998 -0.7104138 2.2645323
1.0995116 1.4297833 -2.1960292 -0.010479868 0.5988717 -0.08247408 -0.21407898 0.4449314
-0.719866 1.3295771 0.7184052 0.8846773 1.9093409 0.2902264 0.2745886 0.7344372
-0.11693453 -0.91770625 0.2538443 -0.2864033 0.25251654 -1.8301347 0.7456386 1.6919601
0.45874375 -0.23725477 0.091654085 -1.2981176 0.8212839 -0.98436683 1.4264668 0.90851665
0.41633797 0.9861288 -1.0347394 -0.7824878 0.046517655 -0.8748824 0.6203937 0.7159997
0.7620653 0.30470747 -1.4987024 -0.06820358 0.3623705 -0.67544794 0.3643897 1.1616572
-1.1461875 -0.8126711 -1.5720391 -1.2500409 0.5256696 -0.123907425 0.4879833 0.4614635
-1.1066706 -0.4324962 0.99706835 0.36250535 1.2558411 -0.05879431 -0.31133914 0.85984933
2.2179494 -1.7521821 -1.5311633 0.4375936 -1.320724 3.672849 0.04218657 0.42948595
0.29204944 0.939598 1.0552748 -0.2428312 -0.25454265 0.054965593 0.35573906 -0.9617885
0.32938987 -0.8511591 1.2242311 -0.48733854 0.7508729 0.77118844 -0.95510566 0.055724367
0.8882354 0.63735795 -0.887655 0.2650189 -0.014604738 1.8959446 -2.0692723 -0.030974304
0.8230211 0.6647773 -1.5852038 -1.5069441 -1.8124554 1.2673509 0.7315849 -1.1064897
-1.2122284 -1.7667309 -0.5396863 -0.42875248 -2.472172 0.7868502 1.2985551 0.74298036
-0.46388564 0.9163685 0.29947054 0.5457962 -0.49593216 -0.42877716 1.1898499 0.57662916
-0.579155 -1.0018135 -0.50016963 -0.30542547 0.83488065 -0.23073025 -1.5676548 0.5235134
-0.11195621 -0.6614895 1.9200788 0.20140947 0.06698808 0.70619905 1.5609734 0.6469514
0.5117176 0.49409354 0.049385596 -0.012839995 0.33509794 -0.55825067 -1.1458936 0.7356666
0.5698451 0.14181465 0.22983037 0.87986344 0.83558697 0.92368317 -0.29888707 -0.9248561
-0.83440125 -0.5469201 1.1560224 -0.27717468 -0.4164088 0.19730473 -0.01576279 1.3643712
0.5316279 0.46671316 0.7683383 2.6864128 0.5076456 -0.17388372 -0.009328575 1.0833938
-0.48305422 0.15532784 -1.4070202 0.5885869 1.3124541 0.09457777 -0.1326221 0.62416977
2.0895126 -1.1275493 -0.27997965 -0.4157386 -0.4186587 0.73530775 0.021180566 1.8070862
0.55851626 0.12000536 0.47940558 -1.1077088 -0.35654008 -0.17306854 -1.4377815 -0.32858437
0.7336398 -1.7233193 -0.083216384 -2.1875517 0.3418992 -0.843844 -0.40913144 1.98679
-0.54772705 -0.45362073 0.977264 1.8050488 0.71600735 -0.120463185 -1.49025 -2.2161057
-1.8181487 -2.3442562 1.2132214 1.2427366 -1.8411283 1.5128841 1.692829 -0.034908425
-0.024693498 -0.46603805 0.22773921 -0.9166233 -0.07955435 -1.0114222 1.3715584 0.44150636
-2.19231 0.6327958 1.2494254 -1.3591588 1.3142679 0.8649245 -0.1742246 0.34570527
2.5139012 0.5502045 0.2445366 0.33942124 -0.7389841 -1.721442 0.90952235 0.88479364
1.2070743 0.7195406 -1.0827608 0.051379785 1.0287935 1.5705619 0.13990411 1.2891759

lstm.weight_ih_l0 f4 [120, 30]
00000000: d428 a8bd 272a 42bd 82db 933d e72f 11be
00000010: c98a 4c3e 47e7 31be e7a9 813c 6480 9ebc
00000020: 32f3 efbc 9cc1 50be 171e 313e f387 6ebd
00000030: 12e6 8a3d 33fb 0fbe f302 2dbc 75e8 ae3c
00000040: 5403 14be 1388 edbc e837 08be 3184 e53d
00000050: fbb0 d7bd 6ec3 1e3e a6ac 9c3d 0906 6dbd
00000060: 85eb 12be 5811 18be d534 683d 31aa e0bc
00000070: 7bc2 89bc f02d 223b fb08 5e3e a3bb 4ebd
00000080: 6300 2f3d cc52 0dbd 87d3 663e 7b0e 703e
00000090: dc28 803e 8d70 443e 128c 6f3c 1c93 cebd
000000a0: 6027 07be 9757 8fbd e077 be3d 2a1b 26bd
000000b0: 7068 d53d bd65 143e 2b2b 343d c89e 02be
000000c0: 2dd5 463c 6d59 a93d f018 6c3e c493 3b3d
000000d0: 739e 593b adbb 383e 14c8 713d 759c 7abe
000000e0: 99a5 993d 498f 033e b418 fa3c 1234 373e
000000f0: c848 a6bd dea0 ea3d 4d94 c9bc 947f 11bd
00000100: fcbb 573e 2c94 41be 31e9 d53d 7a8f 66be
00000110: 8c93 4d3e 1774 23bd 6bd7 babc 1096 4ebe
00000120: 6c41 c43d 9824 183d f978 9e3d 3186 f7bc
00000130: 4ca8 733d 382e 4a3c 89aa c0bc 9e87 6bbd
00000140: 74cb 903d 369d d63c 639a 1d3d e8df 6e3e
00000150: ec7f 023e 3741 e33d dd72 5d3e 9cfb 72bc
00000160: 1a81 b1bd f3a8 8a3d c0f2 2b3d 3b6a 0b3d
00000170: 166c 4fbe b8d7 fe3c a9ed 703d ca34 5ebd
00000180: 928a 683e d2b8 2d3d a240 0e3e 0a09 1f3e
00000190: 1b71 3ebe 6dc2 11be 10d4 f3bd 51ad 973d
000001a0: 9f63 32bd 5373 133e c651 763e 2812 273d
000001b0: b67c 753e ad9d 973d 9018 203d e9ce e7bd
000001c0: a659 3139 c74e 55be 0c62 8dbd 73f7 6ebc
000001d0: c966 38be 3f58 d3bd 82ba 303e 997e cb3d
000001e0: 1321 12be ce4f fb3d ddf4 a6bd 39d3 ee3c
000001f0: 8090 f1bc 06c8 213a a783 b83c 1a0f 913d
00000200: b701 5e3e 87c0 76be 2e9e 853e 4c29 54bc
00000210: 07bd 65bc b313 8e3d ac9f 2cbe a006 2f3d
00000220: 78bf 49be 573e 1c3e dd4b f3bd 6c11 803e
00000230: afba 95bd 78af 27bc 670c 4fbe 54c0 febc
00000240: 1142 283e 89e4 013e b74f ebbd 9bb4 ee3d
00000250: 72d9 8eb9 eb75 063e e83f 15be 347a 44be
00000260: 929f 333d b163 40bd cec7 963d da83 6e3d
00000270: 7bf0 babd 1f92 933d ee06 99bd c85a 2bbe
00000280: f20e 71bd 4284 1d3e 3f81 08be 6811 803d
00000290: 3276 94bc cc7d 923d f011 32be 4b24 3c3d
000002a0: 8279 273d dc83 03be d803 44bc 5e1a 60be
000002b0: 4b4a 4ebd c843 063d a079 4fbd f3f2 36bd
000002c0: 6730 673d 0ca1 3c3e 3abc 4b3e e4a0 b6bd
000002d0: cd29 eebd a0f8 7c3c 9f0a 043e c7c6 84bd
000002e0: 37e7 acbd 769a aebc b3ae 19be 14f4 153e
000002f0: ce4c 273e ed25 e73d 9383 c13d 601f 263d
00000300: 449f 3b3e d0a1 3ebd 4339 a93d f95b bd3d
00000310: 8351 bb3c 7517 7b3d 6a1f d5bc ecf3 27be
00000320: b93b d63d 5446 b6bc 4749 0bbe 4cbe 593e
00000330: 3510 87be 0ad5 f23d 7501 7a3d 6981 cc3c
00000340: 3f51 76be 7eb2 243e 6969 f23d 1322 cd3d
00000350: 8644 393e 1bce 4d3e fc74 74bd 7ab8 643d
00000360: 3a60 5d3e 3e58 85bc 6019 e83c 3055 c13d
00000370: 79c2 0bbc 9e07 9cbd 0365 44bd a7aa 1ebe
00000380: d8d8 3abe 3609 d53d 4a2a d13d 3a20 8fbd
00000390: d5cf 44bd 3f47 edbd ec70 be3d c3c1 8b3d
000003a0: 55fb 26be 24b0 6fbe 5b22 6b3d f110 15be
000003b0: c5e9 57bc 8291 37be 88eb 813e 57dd 4d3c
000003c0: 3027 67bd 540d 243e a452 9ebd 3ac7 6abd
000003d0: 9d93 ecbd ed61 43be 943b c93d 919b bebd
000003e0: 2cac 9b3d d278 a13d cb5b 8cbb d5de 623e
000003f0: 3c37 383e 074d 4e3e 2119 293e 4d87 433e
-0.08210912 -0.04740348 0.07219602 -0.1417843 0.19974817 -0.17373382 0.015828086 -0.01934833
-0.02929077 -0.20386356 0.17296635 -0.05823512 0.06782164 -0.14060669 -0.010559785 0.021351079
-0.14454395 -0.02899555 -0.13302577 0.11206854 -0.10531803 0.15504238 0.076501176 -0.057867084
-0.14347656 -0.14850366 0.05669101 -0.027424904 -0.016816368 0.002474662 0.21683113 -0.050471913
0.04272498 -0.03450279 0.22541629 0.23443024 0.25031173 0.1918356 0.014620798 -0.10086653
-0.13198614 -0.06999128 0.09300208 -0.04055325 0.104203105 0.14491935 0.04398648 -0.12755883
0.012135786 0.0826901 0.23056388 0.045795217 0.0033206015 0.18040343 0.0590287 -0.24473746
0.07502288 0.12847628 0.030529357 0.17890957 -0.08119351 0.11456464 -0.024606848 -0.03552206
0.21067804 -0.1890418 0.10444868 -0.2251567 0.20075816 -0.039905634 -0.022807797 -0.20174432
0.09582791 0.037144274 0.077379175 -0.030215355 0.059486672 0.012340121 -0.023518817 -0.05750238
0.070700556 0.02619801 0.038477313 0.23327601 0.12744111 0.11096423 0.21625848 -0.014830496
-0.08667202 0.06770506 0.04197955 0.034036856 -0.20256075 0.031108722 0.0588204 -0.054249562
0.2270911 0.042412587 0.13891843 0.15530792 -0.18597834 -0.14234324 -0.11905682 0.07406104
-0.043552037 0.14399461 0.24054632 0.0407888 0.23973355 0.07403121 0.039085925 -0.11318762
0.00016913432 -0.20830832 -0.069034666 -0.014585364 -0.1800796 -0.10319566 0.17258647 0.09936256
-0.1427043 0.12271081 -0.08152173 0.029153453 -0.029487848 0.00061714684 0.022523714 0.070829585
0.21680342 -0.24096881 0.26097244 -0.012949299 -0.014022118 0.06937351 -0.16857785 0.042730927
-0.19701946 0.15258156 -0.11879704 0.25013292 -0.07310998 -0.010234706 -0.20219575 -0.031097569
0.16431452 0.12684835 -0.11489814 0.116555415 -0.0002724636 0.1313092 -0.1457516 -0.19187242
0.04385335 -0.046970073 0.073623285 0.058231212 -0.09127899 0.07205605 -0.07472025 -0.16733849
-0.058852144 0.15382484 -0.13330553 0.0625332 -0.018122766 0.071529 -0.17389655 0.04593305
0.040887363 -0.12843269 -0.011963807 -0.21885058 -0.05036382 0.032779485 -0.0506531 -0.04466529
0.056442644 0.1842081 0.19896021 -0.08917406 -0.116290666 0.015440136 0.12894677 -0.06483226
-0.08442538 -0.021313887 -0.15008049 0.1464389 0.16337892 0.11286531 0.09448924 0.040557265
0.18322474 -0.046541035 0.08262875 0.09246058 0.022866016 0.061301667 -0.026015956 -0.16401643
0.1046061 -0.022250332 -0.13602172 0.21263999 -0.26379552 0.1185704 0.061036546 0.024964051
-0.2405443 0.16083714 0.11836512 0.10016265 0.18092546 0.20098154 -0.059681877 0.055839993
0.21618739 -0.016277429 0.028332412 0.09440076 -0.008530253 -0.0761864 -0.047947895 -0.15494786
-0.18246782 0.104021475 0.10213144 -0.069885686 -0.048049767 -0.11585855 0.09298882 0.068240665
-0.16306813 -0.23407036 0.05740581 -0.14557244 -0.013178294 -0.179266 0.2537501 0.012564979
-0.056433856 0.1602071 -0.07730606 -0.057318904 -0.115515925 -0.19080324 0.09825817 -0.09307016
0.076011986 0.07884373 -0.0042834035 0.22155316 0.1798982 0.20146571 0.16513492 0.19094582

lstm.weight_hh_l0 f4 [120, 30]
00000000: adfa 2fbd 4b23 a13d cbe3 973d b2a1 58bd
00000010: 9b63 a1bd 9c32 f0bc fdb3 243e 4e49 2dbe
00000020: 6abe 043e 7338 143c bf44 f6bd ca1c 253e
00000030: 15f5 a63d fcc4 febd 1a7a 343d 8eb4 823e
00000040: 2b61 76bd 58a3 1fbc d61d 34be 8d2b 3b3e
00000050: 1929 3ebe 2e18 0a3e db7a de3d db75 84bc
00000060: acc5 853d 60cd db3d 1f90 b3bc 186f 18be
00000070: a6c9 173e b1b4 21be bb10 85bd 3452 25be
00000080: c500 8a3e ebf6 57bd 00e0 e23d 9f2e a1bc
00000090: 2dd8 873d dc89 a1bd a285 d1bc deda 513c
000000a0: a8ac 813d 0727 96bc 3d8f eebc cfe5 26be
000000b0: a87c e6bd a0c5 19bc 1a87 e2bd 9a89 193d
000000c0: d3fd f7bc 43cf 90bd 3d27 5a3e 5786 b53d
000000d0: cb1a c83d a5af 0b3e 873b 0d3d 05b4 d2bd
000000e0: 6145 7b3d 3e3c c63d bfb8 d23d 574d 13be
000000f0: 62c4 4ebd 23d6 9f3d 623c 8fbc 9bfd 6cbe
00000100: fa16 0a3e 93b2 03be c743 08be 6cf3 3bbe
00000110: 88e3 49bd 5869 803c ace4 523d 48e2 3b3e
00000120: 97c5 3dbd fdbc 74be e6ce cc3d b3b5 2ebd
00000130: 36ec 8bbd 70d6 38bd 874a e63c a05c 9b3d
00000140: 10b4 33bd 8376 423e 82fd 4c39 2e88 74be
00000150: f98f 123d a5bb 663e 4e9e 1abe 6efd 5ebe
00000160: 109d 2e3e a64c ba3c 4c8a 183d 15a7 c93d
00000170: de17 153e cdce 4abc 8014 33bd 2204 3c3e
00000180: 8a4a b9bb 6447 0cbe 976b 883e 9ca5 893d
00000190: 31d0 ecbd 2199 a5bd 35db 2f3d 8b5a 6e3d
000001a0: 3ceb c4bd 3d42 d83d 5004 e63d 8d6f c2bd
000001b0: 47c6 103e 717e 93bd 860d fb3c d672 593d
000001c0: 4943 b0bd 393a a13d 017c 8cbc ac08 4c3e
000001d0: b51d bbbd 4798 20be 8b31 083e f4b9 583e
000001e0: 739b e23c fe9a da3c 0241 90bd 3d13 41be
000001f0: baac 7a3d 63b4 07be f3d1 ebbd 8341 3b3e
00000200: 0f32 0d3e e20d 19bc 64a3 df3c aefc 083e
00000210: ea9a 9a3d 8f58 c5bd cdbd 87bd 96f0 27bd
00000220: 1a25 e83d 330f 08be 88fc cebd d911 dfbd
00000230: 1d4e 83bc 3d0f 873d aec7 033e 3fca 1fbd
00000240: c9b1 0a3c 0818 db3d 434d 60be 6122 e33d
00000250: 767c 3abd b963 723d 81b1 063e 4ab7 b33c
00000260: 95b4 93bd 39bf d93d 0021 02be 1d9b b3bd
00000270: dafa 87bd afe3 07bd bc1e 213e 11b1 2d3e
00000280: 347e ff3d 47bb 40bc 67de ffbb 2c74 d33c
00000290: e7eb e5bd 8f65 de3d 9c3f 74bd 5986 ce3d
000002a0: a50c 1cbe bf3e 893c 8160 7bbd 3f56 463d
000002b0: d2a5 04bd 3659 75bd fce2 0b3d 8f0b 16be
000002c0: 0d16 e6bd 8157 d93b b794 cb3c c9f6 823d
000002d0: f9cf 7d3d ced6 0ebe 3032 cebd 3b28 333c
000002e0: 9350 21ba 25e0 27be 757e aabc 279c 84bd
000002f0: bfcd d03c 8696 143e 6215 88bd b057 223e
00000300: 95f4 23bd 4dfa ef3d ca56 06be 0128 0cbe
00000310: ef5e 0bbe 4214 82bd 7a23 173d 57ef c4bc
00000320: 892b b83d d9cf e5bc 2f3c 313c 9555 73be
00000330: 1d59 fd3d f8f2 c5bb 65b8 53be d97f b43d
00000340: 5fd8 bb3c 2b9a 10be f423 843d e7fa 7fbd
00000350: 8a0c 433d 379e 833d d5bb bbbc 3b35 133e
00000360: 6128 573e 78c4 c5bd 5e6a 2a3d 040c 8a3e
00000370: 9463 fcbd 95d7 34bd 3cd0 593c 7808 59be
00000380: 7f11 823e bb36 523e 7453 1d3d 415b 64be
00000390: eb87 d3bd 397b 01be 2d1b 3c3d c327 fb3d
000003a0: 05e9 023d ccad f9bd ecb0 143e 73f5 123e
000003b0: 2790 d4bd f751 b1bc 9e7e b8bd f71d 4dbd
000003c0: 6e54 903d 3cc7 0cbd 35e8 f33d f1ed 743d
000003d0: a603 693e d37a 6cbd 5b44 ddbd 2b45 283d
000003e0: a6a2 a7bd 4859 763d e423 a8bd aa83 273d
000003f0: eb74 cb3d d5ad 803d 76d5 273d 2ba2 5a3e
-0.042963672 0.0786806 0.07416495 -0.05288858 -0.07880326 -0.029321007 0.16084285 -0.16922495
0.12963262 0.009046662 -0.12024831 0.16124263 0.081522144 -0.124399155 0.044061758 0.25528377
-0.06015126 -0.009743534 -0.17589507 0.18278332 -0.18570365 0.13485786 0.108632766 -0.01616948
0.065318435 0.107325315 -0.021919308 -0.14886129 0.14823017 -0.15791585 -0.06497332 -0.16144639
0.26953712 -0.052725714 0.11077881 -0.019675551 0.06633029 -0.07887623 -0.025576416 0.01280853
0.0633176 -0.018329157 -0.029121036 -0.16298603 -0.11254245 -0.009385496 -0.11060925 0.037484743
-0.0302724 -0.07070782 0.2130403 0.08863514 0.09770735 0.13641222 0.034480598 -0.10288242
0.06134546 0.09679459 0.10289144 -0.14384972 -0.050480254 0.07804515 -0.017484847 -0.23143618
0.13485327 -0.1286109 -0.13307105 -0.18354577 -0.049289256 0.015675232 0.05148761 0.18348038
-0.046331014 -0.23900218 0.100004 -0.04265375 -0.06832163 -0.04512638 0.02811171 0.07586026
-0.043872893 0.18990521 0.00019549395 -0.23880073 0.035781834 0.22532518 -0.15099451 -0.21776363
0.17052102 0.022741627 0.037241265 0.098463215 0.14559886 -0.012378407 -0.043720722 0.18360952
-0.0056546377 -0.13699108 0.26644585 0.067210406 -0.11563147 -0.08085848 0.04293366 0.058191817
-0.0961518 0.10559509 0.11231291 -0.09493933 0.14138137 -0.07201851 0.030646097 0.05308803
-0.086065836 0.07872433 -0.017148973 0.19925183 -0.091365255 -0.15683089 0.13300149 0.21164685
0.027662015 0.026685234 -0.07043649 -0.18854995 0.06119988 -0.13252406 -0.11514654 0.1828671
0.13788627 -0.009341689 0.02729959 0.1337764 0.07549079 -0.09636032 -0.066279985 -0.041000925
0.113352016 -0.13287048 -0.1010676 -0.10892076 -0.016028458 0.06594703 0.1286914 -0.039011236
0.008465239 0.10697943 -0.21904473 0.11090542 -0.04552885 0.059177134 0.1315365 0.021937985
-0.07212178 0.10632176 -0.12707901 -0.0876982 -0.06639643 -0.03317612 0.1573438 0.16962077
0.12475243 -0.0117634 -0.007808495 0.025812231 -0.112266354 0.108592145 -0.059630975 0.100842185
-0.15239199 0.016753552 -0.06137133 0.048422094 -0.0323847 -0.05989953 0.034152016 -0.14652847
-0.112346746 0.0066327457 0.024851186 0.06394727 0.061965916 -0.13949129 -0.10068166 0.010934885
-0.0006153669 -0.16394098 -0.020812253 -0.06475096 0.025488732 0.14510545 -0.066447034 0.15853763
-0.040028173 0.11717663 -0.13119045 -0.13687135 -0.13610433 -0.0635152 0.036899067 -0.024039907
0.08992679 -0.028053211 0.010817572 -0.23763116 0.12370513 -0.006040927 -0.2067581 0.088134475
0.022930322 -0.1412131 0.0645217 -0.06249514 0.04761938 0.064266615 -0.022916714 0.14375775
0.21011497 -0.09656614 0.041605346 0.26962292 -0.123236805 -0.044150908 0.013294276 -0.21194637
0.25403973 0.2052869 0.038409665 -0.22300436 -0.10328659 -0.12644662 0.045924354 0.12263443
0.031960506 -0.12191352 0.14520615 0.14351444 -0.103790574 -0.02164553 -0.09008525 -0.050077405
0.07047354 -0.034369692 0.11909524 0.05979723 0.22755298 -0.05773432 -0.108040534 0.04108159
-0.081853196 0.06014374 -0.082099706 0.04089705 0.0993441 0.06283156 0.040975057 0.21350925

lstm.bias_ih_l0 f4 [120]
00000000: a1d9 01be 0c28 103e 237c 1c3e 2b51 74bd
00000010: 3841 9d3d d619 92bd c8ba 8bbc 0b2b 683d
00000020: 828f 86bd 60e6 04bc 9a9d 3b3e 5a46 a4bd
00000030: 41a1 46bb f5ed 483d 399b 6d3e b898 17be
00000040: d851 acbd 89e7 a03c 6e53 aabd 2ea6 2c3e
00000050: 44a3 7d3e fb13 b83d eddc 0ebe 6e1e 5b3e
00000060: 2e51 193e 77b7 e23d 1c38 513e f93f 033e
00000070: 661f 08bc 4776 0e3e c814 ae3d fdb0 a0bc
00000080: 0e6f 50bd 639f 3d3e 24aa eabd 294d 1d3e
00000090: f384 8b3d 5f86 9b3d e35d ab3d 6dc6 763d
000000a0: 2f15 713e 59a0 aa3c 4806 b9bc f996 c6bd
000000b0: 0723 cbbd bd9b 4a3e 2e14 eebd 4d5c 613e
000000c0: 4bef 763d 15da 1bbd 0eb5 6bbc cdef 8d3e
000000d0: ca5a c23c 0e0f 2f3c 08b3 8a3d 7600 4a3d
000000e0: bf89 473e 2c68 acbd ba32 703e a5e9 37be
000000f0: 0ae4 45bd b395 01be 298a 5a3d e145 76be
00000100: eb37 1f3e 302f 63be 4b31 7d3e b9b1 6dbe
00000110: dbdb 1bbe 4587 ff3d 47c3 fcbd 6e4a 8b3e
00000120: ddd5 51be fe5e 23be de4d 4d3d c27e 6e3d
00000130: f4bc 73bd 9aea 49bd a4ed 17bd 4595 d8bd
00000140: 2e24 173d 7da6 3a3e 98ef 823d 866a 123d
00000150: 1f7a 7f3e 1dfd c43d adc7 0c3d efc2 32bc
00000160: c21f 96bd 6058 083d 1ca6 c3bd 8173 673e
00000170: 9b38 98bd 7b54 d5bd 66b2 843d 162a 97bd
00000180: 6fbd 36bd 3c84 9abd 86d2 40bd 578f a9bc
00000190: 03cc 113e 71d9 a4bd 2af8 293e 0bfb fb3d
000001a0: bbb6 873e effe aa3c a311 543d e5fd 2d3c
000001b0: fe5e 52bd bd30 f3bd 580b 203d b1a6 b03d
000001c0: 7a07 3ebe 0f3e 92bd 28e2 6e3e 4ab8 e6bc
000001d0: 2732 583e 72e3 613e 6f9a ec3b 2c47 3bbe
-0.12680675 0.14077777 0.1528173 -0.05964772 0.07678455 -0.07133834 -0.017056838 0.056681674
-0.06570341 -0.008111566 0.18321839 -0.08021231 -0.0030308517 0.04905506 0.23203744 -0.14804351
-0.08414048 0.019641655 -0.08316694 0.16860268 0.24769312 0.08988186 -0.13951464 0.21398327
0.14972374 0.110701494 0.2043156 0.12817372 -0.008308267 0.13912307 0.085000575 -0.019615645
-0.05088716 0.18517832 -0.11458233 0.15361466 0.068124674 0.075939886 0.08367517 0.060247827
0.23543237 0.020828413 -0.022586003 -0.096967645 -0.0991879 0.19785972 -0.11624943 0.22007866
0.0602868 -0.038049776 -0.0143864285 0.27722016 0.023724932 0.010684742 0.06772429 0.049316846
0.1948614 -0.08418307 0.2345685 -0.17960222 -0.048313178 -0.12654762 0.053354416 -0.24050094
0.15548675 -0.2218597 0.24725835 -0.23212327 -0.15220587 0.124769725 -0.12341934 0.27205223
-0.20491739 -0.15954205 0.050123088 0.058226354 -0.05950637 -0.049296 -0.037091866 -0.10575346
0.036899738 0.18227573 0.06393355 0.03574612 0.24948929 0.0961859 0.034370113 -0.010910734
-0.07330276 0.033287406 -0.09553167 0.22602655 -0.07432672 -0.10416504 0.06479339 -0.07381074
-0.04461425 -0.07544753 -0.04707577 -0.020698233 0.1423798 -0.08049286 0.16598573 0.12303742
0.265066 0.020873515 0.051774632 0.010619615 -0.051360123 -0.118745305 0.03907332 0.08625544
-0.1855754 -0.07140743 0.2332846 -0.028164048 0.21112882 0.2205942 0.0072205584 -0.18288869

lstm.bias_hh_l0 f4 [120]
00000000: 0d9a 0d3d 635d ad3c 5310 5f3e 444e efbd
00000010: ee9d abbc 11dc 75bd 4221 d73d ce7d 1f3e
00000020: 3a80 95bd 8655 3abd 6e01 cb3d 7309 2f3e
00000030: 424f 2e3e d69d aebd 9328 473e aba0 e43d
00000040: 421c 143e 2420 123e ee4b 08bd a8c3 1c3c
00000050: ad17 9d3c 2bfe 583e 52fb 443c 68fd b03d
00000060: 637c fcbd 45c4 4f3b 32e8 263e 6878 34bd
00000070: cf59 e4bd 7052 823d 5520 3c3e d4db 103e
00000080: 5f47 23bd 3be7 09be da57 eebd 00c0 adbd
00000090: a758 fbbd bd76 403e 47f5 76be f3af 08bd
000000a0: f3f2 753e 2b5e 8abd 9c20 9abd de72 323e
000000b0: 327c b53b 352f f6bc a148 9b3d 150e 2a3e
000000c0: f242 2f3a 3fb9 fe3d 3cb5 c83c d91e 693e
000000d0: efff 27be dcba 283d 133b 0c3c 390f 82bd
000000e0: 7b51 373e 5345 543e ce42 523e 44d5 4dbd
000000f0: 2937 87bd 7339 09be f736 863e 0679 a5bc
00000100: b335 8f3d 3f8d 9d3d c9e5 5b3e b9e0 8dbe
00000110: 53a4 9fbd 8b00 1a3d 78f2 4ebe a1cf 6cbd
00000120: 74fd 0dbe c445 81be 83fb d43d c0f0 0f3d
00000130: 19d9 17be 62f8 86be 94ed 55be 6bf4 83bd
00000140: 268b 873d 45d7 4a3e c1d7 ae3d a247 1d3e
00000150: ab20 44bd ddcb dd3d 4bab 21bc 6eeb 65be
00000160: b8a9 9abd 5cb8 093e d846 0cbe d864 e93d
00000170: bda9 f53c a293 03be 8559 fcbd 271e 553d
00000180: 0763 403e 7392 b33d 23bf 133e 73f2 2c3e
00000190: 3f9d c7bd c6c3 1b3e 565b 253e ec47 5bbb
000001a0: 5cfe 2a3d c108 04be e485 383e 62a4 9dbd
000001b0: 3209 663d 43e4 623e 09cc 0a3e 4836 453d
000001c0: c7aa 2b3e 74af eebd 22f6 8c3e bb76 453e
000001d0: 0ba1 013d c95b 853e ca82 293e b3b2 03be
0.034570742 0.021162694 0.21783571 -0.1168485 -0.02094933 -0.060024325 0.1050439 0.15575334
-0.07299848 -0.045491718 0.09912382 0.17093448 0.17022422 -0.085261986 0.19449072 0.111634575
0.14463905 0.14270073 -0.033275537 0.009568132 0.019176329 0.21190707 0.01202281 0.086420834
-0.123284124 0.003170268 0.16299513 -0.04406014 -0.11149942 0.0636338 0.18371709 0.14146358
-0.039862987 -0.13467114 -0.1163785 -0.08483887 -0.122727685 0.18795295 -0.24117003 -0.033370923
0.24018459 -0.06756242 -0.07525751 0.17426631 0.005538487 -0.030051807 0.07582212 0.16606934
0.0006685696 0.12437677 0.024500482 0.22765674 -0.16406225 0.041193828 0.008559006 -0.0635056
0.17902176 0.2072957 0.20533296 -0.050252214 -0.06602318 -0.13400821 0.2621381 -0.02019931
0.06992664 0.07692956 0.21474375 -0.27710512 -0.07795014 0.037598174 -0.20209682 -0.057815198
-0.13866216 -0.2524854 0.103995346 0.035141706 -0.1482891 -0.26361376 -0.2089141 -0.064431034
0.06618337 0.19808681 0.085372455 0.15359357 -0.047882717 0.108298995 -0.0098675 -0.2245309
-0.075519025 0.13449234 -0.136989 0.113961875 0.029988164 -0.12849286 -0.12321762 0.05203071
0.18787776 0.08768167 0.14428382 0.16889362 -0.09746789 0.152114 0.16148123 -0.0033459617
0.041746482 -0.12893964 0.18019825 -0.07697369 0.056161113 0.22157387 0.13554396 0.04814747
0.16764365 -0.11654559 0.27531534 0.19283573 0.031647723 0.2604659 0.16553798 -0.12861137

lstm.weight_ih_l0_reverse f4 [120, 30]
00000000: 8767 0cbe 8cb6 ae3c d88b 65be 410d 28be
00000010: 5754 2cbe a290 28bd 7337 cfbd 0eae 41be
00000020: b47f 943d b258 743d aaad e63d 4fa8 a6bd
00000030: a4b6 fcbd ec5f e1bc c624 e93c c267 0e3c
00000040: 358c f8bc f27d cabd 2267 29bd 96b1 f2bd
00000050: a39a 343d fddd ffbd 8c36 47be 8b38 b53d
00000060: c544 543e 65e7 763d 33a2 81be 57d0 a83d
00000070: a3f8 26bd bc02 213d 572c ff3d ed5a acbd
00000080: cc35 edbd 9edb 073c 4c9c 5cbe c72a 46be
00000090: ef43 7b3d 2efe 1cbe e082 183e 7bc8 90bc
000000a0: f0e3 923d 1877 93bc c33e 15be 0c9b 1b3e
000000b0: 958e dfbd 81a1 37be 30d2 80bc 1ecf 9a3d
000000c0: d48a 133e 9992 1cbe 0cf5 263e 6772 a3bd
000000d0: fe8c cabd bf73 153c d7f9 5f3d 2c57 f6bc
000000e0: d21c 493e 77f3 bdbd b519 c7bd 995c 64be
000000f0: 8928 78be 9249 1abd cd29 423e 6ac5 1ebe
00000100: dd5e 843d f719 38bd 8db7 57be 83e9 4cbd
00000110: 9000 283d 8751 05be 2e82 42be a8b8 56bd
00000120: bf53 2e3c 381a 22be 5d97 413c e87c a0bd
00000130: 5657 223d cb0e efbd 7229 3c3e 4a2a 993d
00000140: db02 88be 9428 77bc dfe6 20be bcfc 453e
00000150: d90f c33d 9fb9 de3c f025 4cbe c3a7 9c3d
00000160: ca25 eb3d a396 64bd 3f40 7fbd bc68 3dbe
00000170: ea55 c63d 1a66 8ebd afa4 7bbd 7e3c 1abe
00000180: f45e 873e abe3 623e 349d 88bd 2a41 9e3d
00000190: 4178 25be 0822 9cbd d4cb 083e 5e10 a0bd
000001a0: bdb8 10bd db70 413d 0a5f 0ebe 8e37 ff3d
000001b0: 29ab 6e3e a2d6 0bbd dccb 893d 6b91 4d3d
000001c0: d6ca 673c 967c 27be b2e1 d8bc 2269 cdbd
000001d0: 820e 9b3d 92ba 33bc e0d8 853d 6256 973d
000001e0: 0cc3 e8bd c425 c23d ac46 7f3d 1b17 5a3e
000001f0: 9dd5 c13c 808e 79be 0470 623e 5494 0b3e
00000200: 51b6 7f3d f18c f23d 15bf f93d 9c46 b1bb
00000210: 9ef2 5d3e 25c7 8f3c 5fd5 c1bb ff4c 873c
00000220: 939c cbbd d2e6 633e 9914 0c3e 22f2 74bd
00000230: 7a05 d23d 74e8 093e 08f3 e8bb fd92 cd3c
00000240: a259 4b3e 757e 71be 27d2 6f3d fe0d 973c
00000250: 973e 0cbe 216e 31bd 42e4 63be 4bcb cc3d
00000260: 378a 9ebc 7a72 043e d18f 823d 7c94 76bd
00000270: 1ecb 983d 4e34 92bd d366 0fbe f3af e43b
00000280: 168a 783d 0bc2 cd3d 1cfa 5d3d fa3d 4dbe
00000290: ea88 31bd ad62 843e 9147 8d3d 8f7e 423e
000002a0: dcb1 8c3d 62c1 73be 1cf5 cebc 7612 dabd
000002b0: a291 2cbe d993 9f3d 9de2 92bd 5c7a acbd
000002c0: f1f4 e23c b298 39bb 5d62 83bd 8bd6 d43d
000002d0: 54a6 79be 2007 64be 9248 8abd e504 533d
000002e0: 29ae b9bd 72c5 8e3d 25a5 313e 5c00 50bb
000002f0: 6f1e 76bc 17e2 b03d 4417 fabd ca59 d1bc
00000300: fd65 ef3d b60c 62bd ecac 3cbe cbbe 1dbd
00000310: f4f9 483b 155d f43d eed8 8f3d 8fe6 863c
00000320: 990b af3c 9338 263e 046f 883d 1ae3 8ebd
00000330: 0a94 f4bd f806 223d 0562 34bc 2333 0cbe
00000340: 624f 753d 1761 ecbd 97a0 f4bd f85f 1fbe
00000350: 2182 d63d e3ca 01be 8ea0 e63d dfb2 c1bc
00000360: cda3 22bd 4121 543e b1b3 8f3d f7bf 8d3d
00000370: e045 e73d 3e95 31be a817 44bd 2f62 7e3d
00000380: f3d4 5c3e ab81 8dbb e56c 1d3e 2d08 83be
00000390: 070d b43d e57b 9bbc eddf 9c3d 7fc6 e4bc
000003a0: 4efa 6fbe de84 57be 0bb2 ddbc 1591 4fbe
000003b0: 5c38 0dbe 00e1 213d 61c8 5ebd be23 7e3d
000003c0: 0964 09be 5225 a03d 04a0 01be c011 a13d
000003d0: 28b5 f6bd abd0 133e fb3a d73d 9326 1ebe
000003e0: accc 023e 0dfd 193d 804f 063e f3a5 99bd
000003f0: 0158 8cbe 0f07 e1bc 3ac9 06bd ff05 6bbe
-0.13711368 0.02132728 -0.22416627 -0.16411306 -0.16829048 -0.041153558 -0.10117998 -0.18914053
0.0725092 0.0596549 0.112635925 -0.08137571 -0.123395234 -0.02751156 0.028459918 0.00869173
-0.030340293 -0.098873034 -0.04135812 -0.11850278 0.044092786 -0.12493513 -0.19454402 0.08848675
0.20729358 0.06027927 -0.2531906 0.08242863 -0.040764462 0.03930925 0.12459629 -0.0841578
-0.115825266 0.008292107 -0.21543998 -0.19352256 0.061344083 -0.15331337 0.14893675 -0.017673722
0.07172382 -0.018001124 -0.14574723 0.15195864 -0.10915867 -0.17932703 -0.015725225 0.07559036
0.14408427 -0.15290298 0.16304415 -0.07980805 -0.098901734 0.009121834 0.054681625 -0.030070864
0.196399 -0.09274953 -0.097217 -0.22300948 -0.24234213 -0.03766782 0.18961258 -0.15504995
0.06463406 -0.044946637 -0.21066113 -0.05002738 0.04101616 -0.13019381 -0.18994972 -0.052422196
0.010640084 -0.15830314 0.011815873 -0.07836324 0.03963407 -0.116727434 0.18375185 0.07478769
-0.2656468 -0.015085358 -0.1571307 0.19334692 0.09524507 0.02718812 -0.19936347 0.076491855
0.11481817 -0.05580772 -0.06231713 -0.18496984 0.096843556 -0.06953068 -0.06143635 -0.15062138
0.2643963 0.22157161 -0.06670609 0.07727273 -0.16159154 -0.076236784 0.13359004 -0.07815622
-0.03533243 0.047226768 -0.13903442 0.12461768 0.2330748 -0.034140237 0.06728336 0.05018751
0.014147481 -0.1635612 -0.026474807 -0.10029818 0.075711265 -0.010969775 0.06535506 0.07389523
-0.11365327 0.094798595 0.062323257 0.21297877 0.023661429 -0.24370766 0.22113043 0.13630801
0.06242973 0.11843289 0.12194649 -0.0054100286 0.21674582 0.017551014 -0.0059153284 0.016516207
-0.099419735 0.2225602 0.13679732 -0.05980123 0.10254951 0.1346758 -0.0071090497 0.025094504
0.19858411 -0.23583396 0.058550026 0.01843929 -0.13695751 -0.043317918 -0.22255042 0.099997126
-0.019353015 0.12934294 0.06375087 -0.0602002 0.074606165 -0.071388826 -0.14004068 0.0069789826
0.060678564 0.100467764 0.0541936 -0.20043173 -0.043343462 0.25856534 0.06898416 0.18993591
0.068698615 -0.23804238 -0.025263362 -0.106480524 -0.1685243 0.077918716 -0.07172129 -0.08421776
0.027704688 -0.0028319773 -0.06415246 0.10392483 -0.24379855 -0.22268343 -0.06752123 0.05151834
-0.090664215 0.069712535 0.17348154 -0.0031738495 -0.015021904 0.08636873 -0.12211469 -0.02555551
0.116893746 -0.055187903 -0.1842534 -0.038512032 0.0030666562 0.119318165 0.07023798 0.01646736
0.021367835 0.16232519 0.066617996 -0.0697691 -0.11942299 0.039557427 -0.011009698 -0.13691382
0.05989016 -0.11541956 -0.119446926 -0.15563953 0.10474039 -0.12675051 0.11261092 -0.023644863
-0.039706994 0.2071581 0.07016695 0.0692138 0.112926245 -0.17342088 -0.047874123 0.062105354
0.21565609 -0.004318436 0.15373571 -0.25592175 0.08791547 -0.018979976 0.07659898 -0.027926682
-0.23435327 -0.21046779 -0.027062437 -0.20270188 -0.1379103 0.039521217 -0.054390315 0.062045805
-0.13417067 0.07819618 -0.12658697 0.07864714 -0.120462716 0.1443507 0.105092965 -0.15444402
0.12773389 0.037594844 0.13116264 -0.075023554 -0.27410892 -0.027469186 -0.03290675 -0.22951506

lstm.weight_hh_l0_reverse f4 [120, 30]
00000000: 042f e03d 27a2 603e 7289 f8ba 863f 71be
00000010: 5176 20be 5c6e 983b eed9 883e b4cc 6bbd
00000020: 4d35 823c 3548 303c e310 99bd 3ab8 6cbc
00000030: 74c8 7a3d e753 1a3b 5739 46be cebf 2a3e
00000040: aaa9 d63d fd9e 273d 397f 843d 9578 f03c
00000050: b7f5 ebbd cdbc 2a3e 0aa1 053e e642 0ebd
00000060: af3f 38be f64a 533e 1ee6 78be cf79 03be
00000070: 6e61 95bd 8717 803e d05b 5b3e cc77 223e
00000080: cdf9 5bbd ad88 2abe 4461 42bd 5637 db3d
00000090: a94f 86bb 9c2b 4ebe 8c97 7bbd 92a0 913d
000000a0: 9f54 383d 591c 35be fd98 503d a3bd 4dbd
000000b0: 7472 413e 6f16 2c3e d6c8 773d 7497 87bd
000000c0: 8ed9 683e bd38 e7bd b9d0 b23d 4e39 013e
000000d0: 7450 693e d86d 06be ddfa 883c d115 03bd
000000e0: b3da 313e afe2 563e 39ad 933d 9e6f bc3d
000000f0: 3d85 35be d59c 84bb 531a a53c 0f64 e7bd
00000100: 9593 ecbc 0aba c1bd 05f3 843e f15e 983c
00000110: b295 89bd 85a9 c7bd 115f a1bd 522f e139
00000120: fc14 1dbe 0a7c 273e 66c8 2f39 b349 723e
00000130: c8f8 9fbd 897e 37bd c248 743e 25db 963d
00000140: 1bf3 443d 4a45 06bd 8945 e3bc 9adf 38be
00000150: b698 32be 6dcc 273d a395 06bd 5d4b be3c
00000160: ece3 abbb face 0fbd a6cc 89bd 1b7d 813d
00000170: 6531 133d b2f3 babd e093 43bd 4b0a f2bd
00000180: 6236 1e3e b694 fbbc 8e46 a33c c100 d03b
00000190: 94d1 1fbe d2a7 01bd 8bfe 77be 27c0 073e
000001a0: c2bb 9cbb fdf5 18be 7c3e 113e 84c8 29be
000001b0: 1f61 823e 61fb 233e 0c64 6d3d 54df 51bd
000001c0: 12dd 483e c886 d8bc 6cd8 84be d749 34be
000001d0: 1701 bebd 0e99 f8bd 633c 35be 4a52 4fbe
000001e0: 5959 2f3d 67d3 403d 8b1d a93d 9ef5 5abe
000001f0: c1de 8ebd 0057 233c 4198 333c 0ca5 acbd
00000200: a056 d6bd 21c9 6ebd 3381 cbbd 1905 8b3e
00000210: a8da d8bd 7bcb 1cbe 11c1 2cbc 8fba d3bd
00000220: 1a79 183d d018 22bd 2596 99bd 9084 613e
00000230: 54a9 d83d 6217 13bd 4cd1 76bd 563c e73c
00000240: 87e0 76bd 2f2a 7dbd 3af8 0cbe ab92 9cbd
00000250: 8574 cfbd 5777 88bb a420 aa3d 5d0e cdbd
00000260: e5b2 1dbe 9b6d d8bb 6885 c03d d472 7d3d
00000270: 0d6d 6039 04d1 82be 19b1 bf3d 17f4 343e
00000280: 5693 0fbe 9844 6fbd 16e9 59bd 0b09 883d
00000290: a680 abbd 2124 1a3e 66ed 3d3c 63e6 8e3d
000002a0: 41b8 4e3e 95c8 3b3c edab 663d 6435 b13d
000002b0: 4765 7e3d 4871 873c f98e 79be 7b8c 4d3e
000002c0: 10ee 3a3d 2f91 03bb 4237 a0bd 2962 0e3e
000002d0: e3c4 083d e9a9 f6bd 026b 5abe 1520 553b
000002e0: a757 3bbe 2f47 673d 1d02 363e 95f3 48be
000002f0: 71c6 233d c603 b5bc a79d 40be eeb0 5a3d
00000300: 5688 323c f117 1dba 7d81 d4bd 6530 6a3c
00000310: a411 e13d 27b9 983d f96f 1a3e 7138 173e
00000320: 7823 38bc 5943 26bd b2e8 413d 89f7 e93d
00000330: 41c5 433d bfed 313e 720f c3bd f1d2 5c3e
00000340: 84eb c53d 968c 6cbd f98e 89bd 015c 463e
00000350: 6008 bdbd 0c4f 10bd cdc5 81be dcdb e1bb
00000360: cbdf b93d 8529 2c3d 2823 e1bd 15d6 41be
00000370: dc78 01be a1f2 cdbd 0ffe c3bd 7d3a 693d
00000380: 24d7 f7bd 3558 07be a97a 443d 5f2c 73be
00000390: 9cb9 763e d3ca 3fbe b6f8 6bbd e8aa 5dbd
000003a0: 575d 6b3e 74df 933d 0768 92ba 25e5 9ebd
000003b0: 28a2 97bd 382c 653b 81c4 253e 8092 6fbe
000003c0: d710 c93c 36c1 023d 1add 2c3e 12cd 0cbe
000003d0: 06ce 1e3e f718 a9bd c3ab 72bd f0fb 1d3e
000003e0: 5676 4abe ca0c 0d3e ecd3 eabc b57c a2ba
000003f0: 81da 3cbd 05af 7f3d 4c32 b1bd 7d5a 90bd
0.109464675 0.21936856 -0.001896186 -0.23559389 -0.15670134 0.0046518277 0.26728767 -0.057568267
0.015894556 0.010759403 -0.07473924 -0.01444822 0.061226323 0.0023548545 -0.19357811 0.1667473
0.104815796 0.040923107 0.06469578 0.029354373 -0.11521476 0.16673584 0.13049713 -0.034731768
-0.17993043 0.20634064 -0.24306533 -0.12839435 -0.07293974 0.2501795 0.21421742 0.15866011
-0.053705025 -0.166537 -0.04745604 0.10703914 -0.0040988517 -0.20133823 -0.061423823 0.071107045
0.045002576 -0.17686595 0.05092715 -0.05022968 0.18891317 0.16805433 0.060494266 -0.06620684
0.2273924 -0.11290119 0.08731217 0.12619516 0.22784597 -0.1312784 0.016721183 -0.032003228
0.17368583 0.2098491 0.07210774 0.09200977 -0.17726608 -0.004047016 0.020154154 -0.112983815
-0.028878966 -0.09459312 0.2596666 0.01859996 -0.06718005 -0.0974913 -0.078794606 0.000429506
-0.15340036 0.16355911 0.00016763955 0.23660927 -0.07811123 -0.044798408 0.2385588 0.07366017
0.048083406 -0.032780923 -0.027743118 -0.18054047 -0.17441067 0.04096644 -0.03285755 0.023229295
-0.0052456763 -0.035109498 -0.06728487 0.0632269 0.03593578 -0.091285124 -0.047748446 -0.118183695
0.15450433 -0.03071056 0.019931104 0.006347746 -0.15607291 -0.031654187 -0.24218194 0.13256894
-0.0047831247 -0.14937587 0.14183992 -0.16580397 0.25464723 0.16013862 0.05795674 -0.051238373
0.19615582 -0.026431456 -0.25946367 -0.17606293 -0.092775516 -0.12138568 -0.17698817 -0.20246235
0.042809818 0.04707661 0.08257588 -0.21382758 -0.06976081 0.009969473 0.010961593 -0.08429918
-0.10465741 -0.05829728 -0.09936752 0.27152327 -0.1058858 -0.15311997 -0.0105440775 -0.103383176
0.037224866 -0.039574444 -0.07499341 0.22023225 0.10579172 -0.03591097 -0.060258195 0.028227013
-0.06027272 -0.061807808 -0.13766566 -0.07645162 -0.10129646 -0.004164617 0.08307007 -0.10012505
-0.15400274 -0.006604863 0.09400445 0.061877087 0.00021402929 -0.2555009 0.093599506 0.17671238
-0.14021048 -0.058415025 -0.053200804 0.0664235 -0.08374147 0.15052845 0.011592245 0.069775365
0.20187475 0.011461397 0.056316305 0.086527616 0.062108304 0.016533509 -0.24370946 0.2007312
0.04563719 -0.002007555 -0.078230396 0.13904633 0.03339089 -0.120441265 -0.21329883 0.0032520343
-0.18295155 0.05646437 0.17774244 -0.19624169 0.03998417 -0.022096526 -0.1881014 0.05339139
0.010896763 -0.0005992642 -0.103762604 0.014293765 0.10989693 0.0745719 0.15081777 0.14767624
-0.011238925 -0.04059157 0.047341056 0.11424167 0.047795538 0.17375849 -0.0952443 0.21564843
0.09664062 -0.05775126 -0.06716723 0.19371034 -0.09230113 -0.035231635 -0.25346223 -0.0068926644
0.09075888 0.042031784 -0.10993034 -0.18929322 -0.1264376 -0.100560434 -0.09569942 0.056940544
-0.12101582 -0.13217242 0.04796854 -0.23747395 0.24094242 -0.18729715 -0.057610236 -0.054118067
0.22984825 0.07220355 -0.0011169919 -0.077585496 -0.07403976 0.0034968983 0.16188242 -0.23395729
0.024544163 0.03192254 0.16881219 -0.13750103 0.15508279 -0.08256715 -0.059245836 0.15428138
-0.19771704 0.1377441 -0.028665505 -0.0012396785 -0.04610682 0.06242277 -0.086521715 -0.07048509

lstm.bias_ih_l0_reverse f4 [120]
00000000: 8e76 523e a7f6 353e 1eab ba3d 3a9c 373e
00000010: cd24 0b3d 539c 71bd 517c 583d 66bd 283e
00000020: 334c 1a3e a394 5d3e 911e 4f3d b9ca 783e
00000030: 54d3 083e 6449 e03d 9835 4c3e 8097 233e
00000040: 4947 153e 7993 7c3d 2ba4 603b 6d5d 28be
00000050: 6e80 b93d bc63 043e f7b2 203d 7fdf 083e
00000060: 7465 9c3d 0966 9e3d e311 b5bb 1be2 043e
00000070: f606 503e 609f b53d 3b54 ad3c 1a5f 77bd
00000080: 88a9 2dbd d21c 00be af3c 94bd 4825 d33b
00000090: 331e 063d 4b00 623e 9c54 073d f553 45be
000000a0: db75 cb3d f840 cfbd aa47 873e 3cc1 d23d
000000b0: 6234 243e 17e6 b7bb f247 2dbe 209e 43be
000000c0: 7d44 c03d d0da 46be d71f e13d c754 6e3e
000000d0: 8a88 133e 0f08 b53d f8b8 503d 0262 7b3d
000000e0: 7f4e 34be 4fb8 6fbc ae23 423e 2937 60bd
000000f0: bd94 5f3d 07cb 0e3e 6178 71bd a055 87be
00000100: f3db 73be 3cc1 be3d 5194 6d3d 50e2 5f3c
00000110: d860 b2bd 6bed bcbd af38 edbd 2f06 0b3c
00000120: 0e6f dc3c 9712 023e 2418 71be 8fbb 63bd
00000130: be58 10bd a661 8aba 2af8 0c3e cd48 2b3e
00000140: 2871 8dbc 301b 6d3e f433 2b3e 20eb 93bd
00000150: 73ae e9bd 692d 9d3c 61a9 bd3c 58a4 1cbe
00000160: 7220 2cbe abd7 303e 14d0 b53d 2e12 753e
00000170: 9297 773b 01bd c13d f6a6 333e ae5f d2bb
00000180: 3ad1 bcbd 6df0 3b3e ed41 da3d eb02 f43d
00000190: 9783 513d 6ab2 a3bd 8014 883d c0e2 353e
000001a0: a299 8c3e 07e7 9b3d b2a4 50bd 9f2d 173e
000001b0: 4604 933d 7c82 213e fff3 8c3d 703c 203e
000001c0: b37b 343c 5b19 4a3e 32f4 683e 3491 3d3e
000001d0: d4c8 2d3d 2735 a7bd 7ac7 0bbe 0747 1e3e
0.20553038 0.17769872 0.09114669 0.1793069 0.033970643 -0.058986973 0.052852932 0.164785
0.1506813 0.21638732 0.05056626 0.24296083 0.13361865 0.10951498 0.1994232 0.15975761
0.14577974 0.06166408 0.003427754 -0.16441889 0.09057699 0.1292867 0.039233174 0.13366507
0.07636538 0.077343054 -0.005525814 0.12976877 0.20315155 0.08868289 0.021158328 -0.06039343
-0.042398006 -0.12510994 -0.07238137 0.0064436533 0.032743644 0.22070424 0.033039674 -0.19270308
0.099345885 -0.10119814 0.26421863 0.10290763 0.16035607 -0.0056121456 -0.16921976 -0.19103289
0.09388063 -0.19419408 0.10992401 0.23274527 0.14407554 0.08839428 0.05095765 0.061372764
-0.17608069 -0.014631345 0.18958923 -0.054740105 0.054585207 0.13944636 -0.058952693 -0.26432514
-0.23814373 0.093142 0.058002774 0.013664797 -0.08709878 -0.092249714 -0.11583077 0.008485361
0.026908424 0.12702404 -0.23544365 -0.05559879 -0.03524088 -0.0010557666 0.13766542 0.1672699
-0.017265871 0.23154902 0.16719037 -0.07222581 -0.11410227 0.019186692 0.023152055 -0.15297067
-0.16809252 0.17269771 0.088775784 0.23932716 0.0037779552 0.09459878 0.1754416 -0.0064200973
-0.09219594 0.18353434 0.106571056 0.11914619 0.051150884 -0.07993014 0.06644535 0.1776228
0.27460963 0.07612424 -0.050938316 0.14763497 0.071785495 0.15772432 0.06882476 0.15648055
0.01101582 0.19736235 0.22749403 0.18512422 0.042427853 -0.08164435 -0.13650313 0.15456782

lstm.bias_hh_l0_reverse f4 [120]
00000000: c2f4 7d3e a8e3 043e 7215 58bb e7a6 2abd
00000010: d663 7a3e c563 82bd 8a89 0d3e 27f7 81bd
00000020: 1e3a b8ba 7b01 89bd ab14 71bd edcd 6c3e
00000030: 6633 693e 9e5e 95bd 9300 923d e9e6 64bc
00000040: 59e7 173d e3e0 613e c19c 043e ff25 123e
00000050: 74af 59bd 992a 813e 47a6 4f3d f92b 1ebd
00000060: 8a4c 323e d728 a2bd 87c1 233d 397b 9e3d
00000070: 7b49 3a3e 0f61 27bd a43e e53d 04d8 773e
00000080: 1ea5 c73d 613a d63d d166 72bd f9e7 6fbd
00000090: 4e84 883e 956c a7bd a39a dc3d 33bc 20be
000000a0: a4b9 853e 93cb 963c e08c e6bc 26eb 563d
000000b0: f97a 8abd f13a 753d 2e0c 0bbe 534e 9cbd
000000c0: 478e 503d d884 abbd c4ec 093d 9250 de3d
000000d0: 3bd3 423e 01ec 8e3d 796d c0ba 6de6 f3bc
000000e0: 8c9c b23c 0227 023e 6ea0 693e 0c0a b7bd
000000f0: b096 4dbe 9ed0 803e 78ec c03d 727a 8cbe
00000100: b35a 8b3d 0eff f73c 2f2b 3a3e cdf4 62be
00000110: b625 a13d 1d20 d0bd a64e 8dbe 5f88 043e
00000120: 4028 56be 1cb9 dabd cb95 3ebe d807 353e
00000130: 2350 4c3e a8be 42be 4534 5f3e 23eb 373e
00000140: d93b f23c 8088 453e 2a16 913c f9b5 babb
00000150: c768 51bd 2cf1 3d3d 360d c4bd 31d2 ac3d
00000160: 8982 4cbe aa23 0bbe 3913 533e 5840 d43d
00000170: 3999 8c3b 70ea 3c3e ebbd 56bd aaff 623e
00000180: cac0 fe3d 1baa 133d ed10 813d 5846 34bd
00000190: 7fa6 383e eed7 573e 20b1 183e c135 c4bb
000001a0: 5f84 ddbc 9b7a 653e c6bd 983d c4db 953d
000001b0: 9aab 933d 0ebf 233e 2ac8 163d 9fed 243e
000001c0: e2ef 8b3e d6ea 1c3e 9258 423e 7f81 ca3c
000001d0: e901 d7bd 6496 82bd acce 8b3c 5fba d6bc
0.24800399 0.12977469 -0.0032971767 -0.041663077 0.24452147 -0.06366686 0.13821998 -0.06345969
-0.0014055406 -0.066897355 -0.0588576 0.2312543 0.22773513 -0.072934374 0.07129016 -0.013971069
0.037085865 0.22058444 0.12950422 0.14272307 -0.05314584 0.25227812 0.050695684 -0.038616154
0.1741201 -0.07917946 0.039979484 0.077383466 0.18192093 -0.040864047 0.111935884 0.24203497
0.097482905 0.10460354 -0.059180085 -0.058570836 0.2666344 -0.08175007 0.10771682 -0.15696792
0.26118195 0.018407619 -0.028143346 0.05247035 -0.067617364 0.059870664 -0.13578865 -0.07632127
0.050916936 -0.08374947 0.033673063 0.10855211 0.1902589 0.06978608 -0.0014681063 -0.029772962
0.021803163 0.12710193 0.22815105 -0.08937463 -0.20077014 0.25159162 0.09420103 -0.27437168
0.06804409 0.030272987 0.18180536 -0.22163697 0.07868521 -0.10162375 -0.27599066 0.12942646
-0.20913792 -0.10679838 -0.18611829 0.17678773 0.19952445 -0.19018042 0.21797283 0.17960791
0.029569553 0.19290352 0.017710764 -0.0056979624 -0.051125314 0.046372578 -0.09572832 0.08438528
-0.1997167 -0.13587824 0.20612802 0.10363835 0.0042907265 0.18448806 -0.052427214 0.2216784
0.12439115 0.036050897 0.063020565 -0.044012398 0.18032263 0.21078464 0.14911318 -0.0059878533
-0.027040659 0.22410052 0.074580714 0.073173076 0.07210465 0.1599085 0.036811985 0.1610627
0.27331454 0.15323958 0.189791 0.024719952 -0.10498411 -0.06376341 0.017066322 -0.026211916

classifier.weight f4 [7, 60]
00000000: e4e2 3b3d 0218 1b3e f141 4dbe 7460 803d
00000010: 1414 f33c c1e3 c13d ed8b 31be 4340 153e
00000020: 7c1f f03d edde 60bd c261 193e 7eb7 c7bd
00000030: 6bac 843d 94d4 3a3e c9bc 63be abd4 29bb
00000040: db41 253e 3390 0d3e 4699 f93d c19a 613d
00000050: 91f9 263e 2d9c 4ebd f22f ad3c 5e58 d5bc
00000060: 9c91 6abd 67d7 23be 57eb 8b3d 279a 043d
00000070: 77da 5d3d 6343 73bd da06 0e3e 5afc ffbc
00000080: fc48 c13c a021 133e 5cc9 9d3d 8b74 463c
00000090: 8a33 50be 5485 333e 62f5 193e d06e 443e
000000a0: f234 2fbc 32e9 51bc e7ed 593e 934b fd3d
000000b0: 2b83 963d e7d0 3abe 0990 4fbe 3181 a63d
000000c0: 4f64 19be 5668 a53a c3a3 df3d 5cab 4dbe
000000d0: e5f5 a2bd 3528 7e3d eb1d 413e 47e9 10be
000000e0: 6ba7 1f3e 187c 413c 07fa 333d 13c2 3a3e
000000f0: 238f 73bd c342 543d a726 16be a22f 293e
00000100: 3817 2abe e333 cb3d 5941 37be 6e30 293e
00000110: 42ca 663d 246d c0bd 6007 5cba 3793 c0bd
00000120: d8c6 4f3d 7725 1f3d b473 59bc 5b8c 2cbe
00000130: 8c18 dcbc 6764 373e b983 88bc 6ac3 c53d
00000140: b522 01bc 28d8 27be ad3a ecbd c501 e1bd
00000150: 133d 3dbe 32f3 60be db94 153e e0b7 c93d
00000160: 3510 07be f0f0 e93d 1c7f 283e 584e 1bbd
00000170: 53a2 a8bd 8b9a 22bc 510c 59bd 871a 16be
00000180: 830e 72bd 3a0b 8c3d 2d0f 023e 5946 0fbc
00000190: 90c2 243e a6d8 5abe cd7a 533d b0d0 ebbd
000001a0: a585 1b3e 1eee f6bc 7bd8 01be fafb 123e
000001b0: d976 21be dbdd 35be 2642 1a3e fd6d 3cbe
000001c0: b576 b8bc ea34 4d3d b4fa 803c 6b9c 963d
000001d0: e76f 0e3e e7b9 a7bd 1c64 433e 9f9d bb3d
000001e0: 6380 2fbe 9269 713d 2822 413e ed89 32be
000001f0: 9d4a 66bd 5ae4 27bd bdd2 903d ca34 fbbd
00000200: e23d f33d fce4 c53d f402 f9bd 465e 123e
00000210: 6110 babd f820 febd c9f1 dabd 7612 9c3d
00000220: b052 0bbe 7e80 523d bcf0 193d 0099 623d
00000230: 5890 f3bd 3cef 9e3d 2b33 debd 5553 3f3d
00000240: 7214 3e3e b165 64bd 826b 173e 9126 2f3c
00000250: 749a 3bbc bafa 57bc d477 d43c c64b 083e
00000260: 98e9 39be 63f4 4dbe 43da 62be f615 4bbe
00000270: 7e7a 3a3e a8bf d0bd f9ad 9a3d 8e96 0b3e
00000280: c326 45be d4c1 523e f67c 20be b7af 233e
00000290: eb34 ae3d 02fd 26be d9a5 de3d 7973 ec3d
000002a0: 8d11 e4b9 76b9 c43d 1ca6 e53d 3e85 143e
000002b0: 854c 313c 08b4 b3bd eada 2a3e 9763 983d
000002c0: 4612 6e3d 38c9 8dbc c7b0 f0bd c45f efbd
000002d0: a526 01be c91a 21be 8c0f 393e 82ec 243e
000002e0: b285 c03d 34b2 103e 97bd 1b3b 6189 ee3d
000002f0: b6dc dc3c 09b8 2c3e 2c20 e53d 74ab 09bd
00000300: 0c33 5f3d 3753 943d 6b9f 203e bf87 c43d
00000310: 8a11 233e a85a 21bd dac9 30be 06fb 363e
00000320: 95a3 18be a0b4 bb3b f1f0 eb3d d46a 0b3e
00000330: 6bc4 2f3c 8a5c 3abe c307 04be 416d 233e
00000340: 58e0 423e 34a0 c93d 6a5c a73d 787f 313e
00000350: 614c 103d c75d 03bd 31cd 783d 4738 8d3d
00000360: ca9e 593e f69c 42be ad26 003e ce3f c7bd
00000370: 8e5c f6bd 168a ecbd a189 22be 7bcd 2c3e
00000380: e6c0 84bd de79 f73d 5a5e 3bbe 840b 0abb
00000390: d5ae 06be f29a fabd b9c5 b5bd 58fa 45bd
000003a0: dcaa 123d 4b46 493e b6a0 40bd 4b6e 8fbc
000003b0: 45d0 21be 4c02 86bd 42e9 2cbe 420e 063e
000003c0: e12e bbbb fa12 563e 0cbc 043e 4d34 0b3d
000003d0: c1c0 a1bc 93a6 eb3c 066d f33d 6062 373d
000003e0: 4f3a 5c3e 2a32 203d cb30 babd f811 463e
000003f0: a3e5 a93b a163 67bd 6522 f0bc 2a8d e93d
0.045870677 0.15145877 -0.20044686 0.06268397 0.02967266 0.09467269 -0.17338534 0.14575295
0.11724755 -0.0549001 0.14978698 -0.09751795 0.064781986 0.18245155 -0.22239985 -0.0025914114
0.16138403 0.13824539 0.12187438 0.055079225 0.1630614 -0.05044191 0.021141026 -0.026043113
-0.05726777 -0.16000138 0.06831997 0.032373574 0.054163422 -0.059390437 0.13869801 -0.03124826
0.023594372 0.14368296 0.07704422 0.012112747 -0.2033216 0.1753133 0.15035012 0.19182897
-0.0106937755 -0.012811946 0.21282159 0.1236793 0.07349237 -0.18243752 -0.20269789 0.0813011
-0.14979671 0.0012619596 0.10919907 -0.200849 -0.07957057 0.062050063 0.18859069 -0.14151488
0.15591209 0.011809371 0.043939617 0.18238096 -0.059462678 0.05182148 -0.14663182 0.16522077
-0.1661042 0.09922006 -0.17896022 0.1652238 0.05634523 -0.09395817 -0.0008393433 -0.09403079
0.05072674 0.03885409 -0.013272215 -0.16850416 -0.026867174 0.17909394 -0.016664373 0.09656413
-0.00788181 -0.16391051 -0.11534629 -0.10986666 -0.18480329 -0.21967772 0.14607565 0.098495245
-0.13189776 0.11422908 0.16454738 -0.03791651 -0.08234086 -0.009924541 -0.05299026 -0.14658557
-0.05909587 0.06838079 0.12701102 -0.0087447995 0.16089845 -0.21371707 0.051630784 -0.11514413
0.151877 -0.03014284 -0.12680237 0.14353934 -0.15767993 -0.17760412 0.15064296 -0.18401332
-0.022517541 0.05009929 0.015744545 0.07354053 0.13909875 -0.08189755 0.19081157 0.09160923
-0.1713882 0.05893857 0.18860686 -0.17435427 -0.0562235 -0.040989257 0.07071445 -0.12265928
0.118770376 0.09662816 -0.121587664 0.14293775 -0.09085155 -0.12408632 -0.10690648 0.07620709
-0.13605762 0.05139207 0.037583098 0.055321693 -0.11892766 0.07760474 -0.10849603 0.04671033
0.18562487 -0.055761043 0.14787105 0.010690347 -0.011450399 -0.013182336 0.025936045 0.13310155
-0.18155515 -0.20112757 -0.22153573 -0.19832596 0.1821079 -0.101928055 0.07552714 0.13631651
-0.19253068 0.20581752 -0.15672669 0.15984999 0.08506187 -0.16307452 0.10871477 0.11545462
-0.00043500625 0.09605686 0.112133235 0.14503953 0.010821466 -0.087745726 0.16685072 0.0744087
0.058122896 -0.017307863 -0.117524676 -0.11688188 -0.12612398 -0.15732874 0.18072337 0.16105846
0.094005 0.14130479 0.0023764127 0.11647297 0.026960712 0.16867079 0.11187777 -0.033610776
0.05449204 0.072424345 0.15685813 0.09596204 0.1592466 -0.039393097 -0.172645 0.17869195
-0.14906152 0.0057283193 0.11520565 0.1361497 0.010727982 -0.18199363 -0.12893586 0.15959646
0.19030893 0.098450094 0.081719235 0.17333782 0.03522909 -0.032071855 0.06074256 0.068955
0.2125198 -0.19005188 0.12514754 -0.09728967 -0.12029372 -0.11549775 -0.15872814 0.1687526
-0.06482105 0.12083791 -0.18297711 -0.0021063993 -0.1315263 -0.12236585 -0.08875603 -0.04833445
0.035807475 0.19655721 -0.047028266 -0.017508646 -0.15802105 -0.06543407 -0.16885856 0.13091376
-0.0057123755 0.20905676 0.12962359 0.033985425 -0.019745233 0.028765952 0.11886029 0.044771552
0.21506618 0.03911034 -0.09091338 0.19342792 0.0051848455 -0.056491498 -0.029313276 0.11403878

classifier.bias f4 [7]
00000000: b1b6 b1bd 68ab 4dbe 1d4d 303d 09bf 1b3e
00000010: f30b cfbd 3b51 c03d 259d efbd
-0.08677424 -0.20084918 0.04304229 0.15209593 -0.10109701 0.093904935 -0.11699895
