models/newestModel.pth (torch, 66680 bytes, 11 tensors)

word_embedding.weight f4 [19, 30]
00000000: b7b9 1abf f4ed 383f 765a a63e a267 5e3f
00000010: 0dc2 56bf d3e0 9b3f ec2a a73f 35fc 933e
00000020: d852 b2be 95b9 12c0 220f 903e 97cf cabf
00000030: f1bf 45c0 a26b a9bf bb15 35be 2adf 1c3d
00000040: 0018 a93f cc45 20ba 8b86 8ebf 5c76 6dbf
00000050: fe52 87bf 0d03 91be 3429 09bf 1639 c73e
00000060: ba7e 523e f4df c9bf 4cb0 36be 0eda f03f
00000070: e9fc e03f b2c3 c93f 6c59 153f 2971 8cbe
00000080: 3d60 eebf 275a 17c0 63d9 c6bf 34d9 2c3f
00000090: 6fac bcbe b000 1f3c 14f0 adbe 37d1 e3bf
000000a0: a25b 8bbe 45f8 0340 f115 63bf a9b1 a6be
000000b0: 219d c2bf 7dc9 e43f 6f15 15bf 50b1 c2be
000000c0: ce6c 2fbf 42d8 843f bb3b 593f 6c13 ba3e
000000d0: fc50 6c3f b35a 6cbe 8b1d e0bf 64f1 adbf
000000e0: ccaf 253e 71ce 86be 7031 fabf 7d17 aebe
000000f0: bde9 d6bf 25b4 06bf e929 003f 823c 193f
00000100: 6814 8bbf 18ca d93e a21f 6e3e 8162 f83e
00000110: ba0e 95be 2804 f13f 0b10 dabe f990 fcbe
00000120: cc5f 73bf 4330 71bf 4e89 4bbf 7239 ba3e
00000130: a5d4 48bf fd27 303f 9514 bd3e d544 473f
00000140: d98c ac3f 00f5 0f3f 9d89 16bf e639 8b3f
00000150: 1111 003f 3967 1a3f e19e 96be 866a ee3d
00000160: 9a84 883e aed5 b13e c381 03c0 1022 ab3f
00000170: 24a6 5bbf 0eda ab3f 5af5 a4bd 77c5 cabf
00000180: 4f07 5f3f 71bd 2dbf e6ae 7c3f 1517 6ebf
00000190: ca56 893f 0e5f b7be 113b 1c3e 7c75 683e
000001a0: b05b 2540 99e5 88bf a90f c9bf a93d 0f3f
000001b0: 556d ce3f 2bd7 e0be da92 8ebf c59b 323f
000001c0: 93ca 81bf 6259 af3e 35d0 16c0 f5d7 4b3f
000001d0: e604 acbe 738c 0040 4dc3 b53d bc33 0ebf
000001e0: aa96 903f 75ec 60bf 5647 d5be 8ca5 633f
000001f0: 9593 923e afbb 06c0 ef00 c73f 2a53 f03e
00000200: 7cc1 09bf 8713 2b3f 7e13 fbbf 1c2d 0540
00000210: b456 17c0 24cc bdbf b3ee 15bf e564 7c3f
00000220: f03b a63f 4086 bf3e 6418 0140 f711 a63f
00000230: 282d 573f a7e9 083f a3fe a9bf 9557 1cbe
00000240: 6460 9b3f d277 e1bf b51a 8a3f 0dcb 89be
00000250: 70f2 7fbf ec68 9cbf cf5d c0be eebd d7bf
00000260: 0188 973d 47c8 823f 3122 6cbf 8a3a 0ac0
00000270: a8a6 15bf a6f6 3d3f a841 db3e 2255 a6bd
00000280: 3f9b 44be 3984 cfbf bf5b 9bbf 6cd0 f63f
00000290: 13d6 88bd 54ff 283e 2b4a d0bc ae08 20c0
000002a0: cb3b 98bf 1fe0 a63f d095 b83f 4c75 e03e
000002b0: 3570 35be 8af4 c8be b225 18bf 1441 a93e
000002c0: 7b66 51be 4bfe a73f 300a e43e 2437 a4be
000002d0: 1169 13bd 8e29 b5be 8511 efbe e40d 3f3f
000002e0: c5a1 eb3f 9272 04bf 44b3 adbe eda2 a13e
000002f0: d11a f43e fa10 5dbf 61aa 17bf 5980 793e
00000300: df7e 69bf faa1 d9bd bb06 95bf 561e c8be
00000310: c103 5abf 073c 24be e6b0 8b3e 03b9 b93b
00000320: 4b16 4f3f 094f df3e 971c dabf e03d 76be
00000330: 4623 903f 703d 66bf 6a09 dbbe 46c5 233f
00000340: 695a bf3f 19f2 e8be 9b4b 043f 1234 8abf
00000350: 061c f03f eed0 bf3f 169a f13f 5fc5 cdbe
00000360: 0524 09c0 6874 e63f a71d f6be 1941 b6bf
00000370: 929a 2e3e 57b1 8e3f f318 e13f 505a 74bf
00000380: 0f3a b6bf 9c6a cdbe 951e 0840 7640 75be
00000390: 9214 69bf ff3e b33e 4aab 61bf 9fdb 31bf
000003a0: a930 bebf 0428 16bd 5d4a b93e 77a4 ce3e
000003b0: 322e 3bbe 2ef0 9e3f 1e70 33bc fb4e 0440
000003c0: b1b5 89bf 9e1f 463f 9b43 b73f b5a6 ffbf
000003d0: a688 b9be 17a7 703f 951e 54bf 439b ec3d
000003e0: b2fd b6bd ee24 4cbf 22fb b6be fade b3be
000003f0: e345 0c40 c2b3 21bf ca21 0040 e7b0 0f40
-0.6043963 0.7223809 0.3249089 0.8687688 -0.8388985 1.2177986 1.3059974 0.28903356
-0.3482883 -2.292577 0.28136545 -1.5844601 -3.0898402 -1.3235972 -0.17684071 0.038298763
1.3210449 -0.0006113916 -1.1134809 -0.9275873 -1.0572202 -0.2832264 -0.53578496 0.3891074
0.20556155 -1.577147 -0.1784069 1.8816545 1.7577182 1.5762846 0.5833957 -0.27430084
-1.862312 -2.3648775 -1.5535091 0.67518926 -0.36850306 0.009704754 -0.33972228 -1.7798222
-0.27218348 2.0620282 -0.88705355 -0.3255742 -1.5204202 1.7873989 -0.5823583 -0.38025904
-0.685254 1.0378497 0.84856766 0.36342943 0.9231107 -0.23081474 -1.7509016 -1.3589292
0.16180342 -0.26329377 -1.9546337 -0.34002295 -1.6790081 -0.5261863 0.5006395 0.5985795
-1.0865602 0.42536998 0.23254254 0.48512653 -0.29112798 1.8829393 -0.42590365 -0.49329355
-0.9506805 -0.94214267 -0.79506385 0.36371952 -0.7844947 0.6881102 0.36929765 0.77839404
1.3480483 0.56233215 -0.5880373 1.0877044 0.5002604 0.60313755 -0.2941809 0.116414115
0.26663667 0.34733337 -2.054795 1.336977 -0.85800385 1.342592 -0.080546096 -1.5841511
0.8712053 -0.6786719 0.98704374 -0.9300397 1.0729611 -0.35814708 0.15256907 0.22701067
2.5837212 -1.0695068 -1.5707904 0.5595346 1.6127115 -0.4391416 -1.1138566 0.69768935
-1.0139946 0.3424788 -2.356458 0.796264 -0.33597487 2.0085723 0.08875141 -0.5554769
1.1295979 -0.87860805 -0.41655988 0.8892448 0.2862822 -2.1052053 1.554716 0.4693845
-0.5381086 0.6682667 -1.9615324 2.0808783 -2.364667 -1.4827924 -0.5856735 0.9859145
1.2987041 0.37407112 2.0171137 1.2974232 0.8405328 0.53481525 -1.3280834 -0.15267785
1.2138791 -1.7614691 1.07894 -0.26912728 -0.99979305 -1.221952 -0.3757157 -1.6854837
0.073989876 1.021737 -0.9223967 -2.159823 -0.5845742 0.7420448 0.4282353 -0.081217065
-0.19199847 -1.6212226 -1.2137374 1.9282355 -0.066814564 0.1650365 -0.025425991 -2.5005298
-1.1893247 1.3037146 1.4420719 0.4383949 -0.17718585 -0.39249068 -0.5943252 0.33057463
-0.2044925 1.3124479 0.44539022 -0.3207332 -0.03598887 -0.35383266 -0.46693054 0.7463057
1.8408743 -0.5173732 -0.3392583 0.31569615 0.4767671 -0.8635403 -0.5924435 0.24365367
-0.91209215 -0.10626598 -1.1642679 -0.39085644 -0.8516198 -0.16038524 0.272834 0.005667807
0.8089339 0.43614987 -1.7039975 -0.24047041 1.1260765 -0.89937496 -0.4278062 0.6397289
1.4949466 -0.45497206 0.51677865 -1.0797141 1.8758552 1.4985635 1.8875148 -0.40189645
-2.1428235 1.8004274 -0.48069498 -1.4238616 0.17051151 1.114787 1.7585739 -0.95450306
-1.4236468 -0.401204 2.1268666 -0.23950371 -0.9104701 0.35009 -0.8815199 -0.6947574
-1.48586 -0.036659256 0.36189547 0.40359852 -0.18279341 1.2417047 -0.010952024 2.0673206
-1.0758573 0.77391994 1.4317507 -1.997275 -0.36237067 0.9400496 -0.82859164 0.11553051
-0.08935107 -0.7974385 -0.35738474 -0.35131055 2.1917655 -0.63164914 2.0020623 2.2451723

lstm.weight_ih_l0 f4 [120, 30]
00000000: a4fc 4e3e 1ed6 23be e5bb b2bc 355c 5e3d
00000010: 09c1 4cbe f51d 7e3b 5803 d43d 8390 fd3b
00000020: 47b2 43be 838a 583c 7e78 143e 4fc8 e0bd
00000030: f66a 35be ac31 543e 3d89 98bd 7e0c 9a3e
00000040: 0c23 bdbd 55b7 f73c 2745 31be 08f6 563d
00000050: 3ebf d93d daa0 563d f495 ddbd 7e31 223c
00000060: 72aa 34be 2e28 4c3d d62c 013e 32f9 0ebe
00000070: 926c 423d 4f5d 81be 3c5e ca3d 3d9c 1abe
00000080: d0e0 343e 9025 53bc 761a 3dbd bcb7 e8bd
00000090: 87cd 903e 3175 823e cd19 79be fd30 2d3c
000000a0: 863e 053d 556d 953d 0375 d6bd df85 853e
000000b0: 09bf 4f3d 81b2 a13d bde2 303e 9e45 66bc
000000c0: 9eca 00be b8dc cc3c ff76 2c3e 2e03 21be
000000d0: f35d 0f3e a54b fbbd fa75 51bd 32bd a73e
000000e0: 28b0 05be 3bfb 323e 7fa2 343e 1d32 683e
000000f0: 9b25 7abe c897 1b3e 6c0b 1d3e e1b6 30bd
00000100: dda6 863e 157b f1bd 2757 013e 21e2 5cbc
00000110: c281 7e3d f2cf 2d3d 9b00 9b3e 7ebf d6bd
00000120: fbf4 df3d c970 3c3e 7820 643d bc65 893d
00000130: 5e5c 203d 5653 4b3e f20b 18bd d882 ca3d
00000140: b77e 643d 2271 7dbd 34cc 22be fffa 573e
00000150: b9b1 41bd ae97 5a3d be3c cbbd 3aa8 9d3e
00000160: 9add 4abd 94e8 a33e 51bd f33d ee33 1f3c
00000170: b39e c2bd 6938 87bd 6dcd 4dbe e961 3bbd
00000180: c90c 6b3e c473 713e 903e dcbd f42d 9bbe
00000190: 6c39 e3bd ecd1 9a3e a6e5 483b 4bee 87be
000001a0: 7142 49be d460 c83d a7e0 6e3e 447a 47be
000001b0: fec7 003e 4165 bd3c 5cf1 1a3e 12dc a43d
000001c0: 8785 6cbe 04dc 8fbc 0db8 e33d f1a7 eebd
000001d0: fe0a b4bd fcf5 d0bc 0537 7bbd 1e07 52bd
000001e0: 829a f9bc 508d 813e 13a8 5a3e 8349 37be
000001f0: da8e 043e b8f3 cc3c d2c6 c3bd 732a 38bd
00000200: 2730 a03d 4d39 f0bd c870 8cbb 04b1 dbbd
00000210: f441 833e bd2d f2bd 503d 153e 1707 79bc
00000220: ff41 f23d 0dc5 34bd 4f76 a2bd e242 a73e
00000230: 12ce a9bd c327 a53e 0f6d 5dbd c23a e93d
00000240: 9c25 debd b1e9 653d bd0d 42bd bccc 993e
00000250: d062 4bbe 222e 5c3e d6ad 91be 644a 813e
00000260: 03d9 9a3d f8f7 9a3c 36b4 743e 69f7 433d
00000270: d782 69be 1a09 ba3d 5773 683d 58cf ddbd
00000280: 96af f63d 2e49 f73c 97e8 8c3e a4d9 e9bd
00000290: 149e a33e 59d4 753e 59ce 8c3d 559c 84bc
000002a0: f63d 6b3e 1568 e3bd c1ca 04be 888f 4b3a
000002b0: 6cec 803d 0e78 1fbe fcca 77be c755 073e
000002c0: dd17 393e f9ef a63e d477 0d3e 7926 9c3e
000002d0: 0d77 8b3e e405 8b3d 5e5b 2d3e 1ae4 63bd
000002e0: b5bd 2e3e ec8e 4c3d 039e 213e 3acd 403d
000002f0: 33bb 86bd d0a3 9cbd c9b0 443c c175 033e
00000300: 8f53 ffbd bfbd b0be 71ab 80bb 868a 123e
00000310: 3f43 8e3e 446c f73d bac3 673b 8770 073c
00000320: e1f6 91be 248d a03e 8fe4 3bbe f9ee 5cbe
00000330: f26c debd 2cb8 92bc 61ba 01bd 1466 5abd
00000340: b117 e9bc a029 2e3d c139 633e 5ef0 7a3e
00000350: 0e10 433e 00e8 08bd b04f 7f3e d907 d43d
00000360: b861 033e 420b 8cbd 8df8 04be d0dd 9dbe
00000370: 4b7b 45bd 9c03 033e 8c30 1b3e 471c 2ebe
00000380: 4b1d 773e c7b5 05be 3432 ba3d 68af fd3d
00000390: 07cf 703e 6dc9 e9bc d2e9 cfbd bbce 823e
000003a0: c37e 59be e60f 90be fadc 3bbc 0c49 b5bc
000003b0: c2d1 49bc aa3f 013e 9c1e d8bc 2001 123e
000003c0: c07d 5fbe 3af3 34bd d766 77bd 5270 0cbe
000003d0: c5da 3c3d 068c aabd 9ceb 3d3e be48 693d
000003e0: e950 97bc 60b8 80bb c26f 06be 8b24 03be
000003f0: 0e48 9f3d 89b5 b6bc c747 b63b 1931 943e
0.20213562 -0.15999648 -0.02181811 0.054287154 -0.19995512 0.003877518 0.103522 0.0077381744
-0.19110976 0.0132166175 0.14499089 -0.10975706 -0.17716584 0.20722073 -0.07448051 0.30087656
-0.092352 0.030238787 -0.17311536 0.052480727 0.1063218 0.052399494 -0.10819617 0.009899495
-0.17643145 0.049843006 0.1261476 -0.13962248 0.047466822 -0.252665 0.09881255 -0.15098663
0.17663884 -0.012887374 -0.046167813 -0.113631696 0.28281805 0.25480035 -0.24326248 0.010570762
0.03253033 0.07296244 -0.10471537 0.26078698 0.050719295 0.07895375 0.17273994 -0.014054684
-0.12577292 0.02500759 0.16842268 -0.15723869 0.14000683 -0.122702874 -0.0511379 0.32761532
-0.1305548 0.1747865 0.17640112 0.22675367 -0.24428408 0.15194619 0.15336388 -0.043143157
0.26299182 -0.11791054 0.12630902 -0.013481648 0.062135465 0.04243464 0.302739 -0.10485743
0.10935398 0.18402399 0.055695027 0.067088574 0.03915059 0.19856009 -0.037120767 0.09888238
0.055784907 -0.06187547 -0.1589821 0.21091841 -0.04728863 0.05336731 -0.09923695 0.3079241
-0.049527742 0.3201338 0.119013436 0.009716971 -0.09502926 -0.06602556 -0.20097895 -0.04574767
0.22954096 0.23579317 -0.1075412 -0.30308497 -0.11094937 0.30238283 0.003065446 -0.2654899
-0.19654252 0.097840935 0.23327886 -0.19480234 0.12576291 0.02311957 0.15131134 0.080497876
-0.23097812 -0.017560966 0.11119089 -0.11653126 -0.08791159 -0.02550792 -0.061331768 -0.05127632
-0.030469183 0.25303125 0.21353178 -0.17899136 0.12945119 0.025018558 -0.09559406 -0.044962358
0.07821684 -0.11729679 -0.0042859055 -0.107271224 0.25636256 -0.1182513 0.1457417 -0.015199444
0.11828994 -0.044133235 -0.07932722 0.32668215 -0.08291258 0.32256898 -0.054059085 0.1138816
-0.10847017 0.05613107 -0.047376383 0.30039012 -0.19861913 0.21501973 -0.2845294 0.25252068
0.07560923 0.018917069 0.2389687 0.04784337 -0.22803818 0.09083767 0.05675062 -0.10830563
0.12045209 0.030186262 0.27521202 -0.11418465 0.31956542 0.24006785 0.06875295 -0.016187826
0.22972855 -0.111038364 -0.1296797 0.0007765223 0.06295094 -0.15573141 -0.24198526 0.13216315
0.1807551 0.3260496 0.13815242 0.30498102 0.27239266 0.06788233 0.16929385 -0.055637456
0.17064555 0.04994099 0.15782933 0.04707072 -0.06578674 -0.07648432 0.0120050395 0.12837888
-0.124671094 -0.34519765 -0.0039266874 0.14310655 0.2778568 0.12081197 0.0035364465 0.008266575
-0.28508666 0.31357682 -0.18348907 -0.21575536 -0.108606234 -0.017910086 -0.031671885 -0.053320006
-0.02845368 0.042520165 0.2219 0.24505755 0.19049093 -0.033424377 0.24932742 0.10353059
0.12830245 -0.06838085 -0.1298544 -0.30833292 -0.048213284 0.12794346 0.15155238 -0.17002974
0.24132268 -0.13057624 0.09091607 0.12386972 0.23516475 -0.02853843 -0.101520196 0.25548348
-0.21239762 -0.2813713 -0.011466259 -0.022129558 -0.012318077 0.12621942 -0.026381783 0.14258242
-0.21825314 -0.04417727 -0.06040081 -0.13714722 0.046107072 -0.083274886 0.18546909 0.056954138
-0.018471198 -0.003928229 -0.1312857 -0.12806909 0.07777415 -0.02230336 0.0055627557 0.2894371

lstm.weight_hh_l0 f4 [120, 30]
00000000: 42ca 8f3d bf03 1b3e 9bca a6bd ea8b 993e
00000010: 5dde 40bd 6ce2 cebc 3df0 c73d 531e 0ebe
00000020: 5892 943d cc77 1ebb 3a6a 89bd 5727 08be
00000030: 8354 8e3e 7d48 723d d628 3abc 6b93 ed3d
00000040: e0c7 3d3e 2f12 17be 0465 523e 54a2 a1bd
00000050: 6a66 fdbd 4b84 623e d1eb 92be 3918 113d
00000060: d01a 8ebd e487 093e c977 8abd 1ef4 1fbd
00000070: d475 4fbe 8c04 a8bd 1f9e 98bc d3ba cd3d
00000080: 91ba 43bd b880 183e b532 dd3d 22da 62bc
00000090: 4c72 983e 5fee a0be 63df cdbc 7b4c 2f3b
000000a0: 88de 58bd e5f0 89bd ca0f 3dbd b0ad f13d
000000b0: 9113 eb3d 1a38 533e 399b 3c3e 9957 793d
000000c0: cd08 8c3d bfdb 6e3e be78 febd 057c 4b3e
000000d0: e8d4 91be b09a 6c3e a9fa 0b3d 9001 403e
000000e0: aba7 5d3e de5e 273d c477 0dbc 9483 a1be
000000f0: 3cf9 aa3e 5842 2a3e 7c9b acbd 7be2 483c
00000100: b878 d63c d69b 10be 654b eb3d c738 3dbe
00000110: dde7 e23d a7a0 09bc aca7 80be 80e2 2a3c
00000120: 77f1 a33e 9818 053e e805 c03d 2026 8d3e
00000130: 57d6 763e 22b9 373e 85d9 1e3e 8715 a8bd
00000140: 2219 ec3c d41e 153e 60f3 29be 2f4d 8e3e
00000150: 2731 973d 0f20 4f3e 20b9 af3d 340f a93e
00000160: dfe1 dcbc c533 8ebe e015 053e dd20 ccbc
00000170: a8f5 febc 45d8 eb3d 02d8 edbd 8ead 71bc
00000180: ce94 9c3e 32b6 843d 6ae8 203c 5a2e 163e
00000190: f1bf 9bbd c8dc 483e 750a 01be 31af 63be
000001a0: d376 693d 2a72 71bc e3f1 8d3e 97f2 5cbd
000001b0: 44d9 3c3e 72eb 39bd 47c7 65be 9a8e 363e
000001c0: d278 e4bd 0d45 c63d 9143 a0bc 8e08 1cbe
000001d0: c2a4 9c3e e1d8 3a3e e0a6 64be 6139 1dbe
000001e0: d0bc 783e 93c6 ae3e 131d a6be 502c fd3a
000001f0: ff6a 81bd 13fe 5b3e 7d87 9a3d e885 7dbd
00000200: 7c8c f6bd 94a7 6e3e 9c38 96bc 075e 78bd
00000210: 2997 733e 8c37 1e3e ecae 5a3e 9fd2 a4bd
00000220: 323b 9d3e 41d1 a13d 4790 88bd 2064 133c
00000230: 68e1 27be 8147 4b3c 09ea 67bc 4e17 463e
00000240: 2325 103e 2d95 383e bdd1 053e 9f0e 8d3e
00000250: 0715 07bd 10b0 6bbd 4e46 163e 8e01 af3e
00000260: 8774 c6bc 9f5b cb3b 27ae 6cbe 0acf 92bd
00000270: b081 603e 6372 81be 7c73 19be 1dfd 2e3e
00000280: ee54 42be 85bc c83d 5a02 f83d 18f1 a93e
00000290: 1145 423c 2427 f13d 0905 b23d e073 103d
000002a0: 3b12 483e c635 2cbe 4d9c 80bd fdf8 91bb
000002b0: f56b 9e3d ae82 833d 25cf 403e 4225 fa3c
000002c0: d8ea e93b f6ee 1e3e 38fc 143c 74e9 cebd
000002d0: f2f6 cfbd f0fa 223e bc9f 20be 687e f23d
000002e0: 4c91 ad3d dcde 4ebe 6eda f53d eaf2 17bc
000002f0: ba2f 773e 662e 7c3e fefa a4be 4808 f13d
00000300: 59d7 ecbd 1dbf 2e3e 42b2 40bd be78 fb3d
00000310: ba6d 8f3e 5844 acbd 87a4 793e 7081 84be
00000320: 8635 d5bb b02a 6e3e 4c2c cbbd 2ba2 5b3e
00000330: 414d ab3d ff96 e23c 08e2 9e39 4ad8 bc3d
00000340: fd53 423d 86cd 4a3d e4b1 82bd 64dc 473e
00000350: b4f0 943d a4cb 493e c565 62be a2ea 583d
00000360: fa44 433e b01c babd 4758 033e 8fe0 2b3e
00000370: 9854 3fbe 27d1 18bd 478e ae3c 2ad1 983d
00000380: a438 93bc 387b 953d e701 c33d d288 8f3e
00000390: 5682 d2bc 79cc c93d e5cd 813c aeb8 b53b
000003a0: 0b92 8d3c adcb 78bd 4d4f 68be 90ff 013e
000003b0: d61e 123e f2c0 d8bc b5ae 313e 20d0 c3bc
000003c0: d2fe f23d 2d6a 8c3e c4cd a5be 97e1 a03e
000003d0: 0160 a0bd 0f60 8c3d 8012 2c3e cf04 2bbe
000003e0: 0d86 553e e107 92bd 6a76 aabe 219a 06be
000003f0: 0a03 003e e7ba 363e 7c55 923e 5c3c 503c
0.070209995 0.15138148 -0.08144113 0.29989558 -0.047087062 -0.02525445 0.09762619 -0.13878755
0.07254475 -0.0024180291 -0.06709714 -0.13296257 0.27798852 0.05915116 -0.011362275 0.11600383
0.18533278 -0.1475303 0.20546347 -0.0789229 -0.123730496 0.22120778 -0.2869554 0.03542349
-0.06938708 0.13430744 -0.067611285 -0.039051168 -0.20259792 -0.08203992 -0.018630086 0.100453995
-0.047785345 0.14892852 0.10800687 -0.013845952 0.29774702 -0.31431863 -0.025130933 0.0026748467
-0.052946597 -0.067354 -0.046157636 0.118007064 0.11478341 0.2062687 0.18418588 0.060874555
0.06837616 0.23326014 -0.124253735 0.19871528 -0.28482747 0.23105884 0.034174595 0.18750596
0.21645992 0.040861957 -0.008634511 -0.315457 0.33393276 0.1662687 -0.08428094 0.012261028
0.02618061 -0.14121947 0.1148899 -0.1847869 0.11079381 -0.008400119 -0.25127923 0.010429978
0.3202016 0.12997663 0.093761265 0.2756815 0.24105202 0.17941716 0.15512665 -0.08207231
0.028820578 0.14562541 -0.16596746 0.2779326 0.07382422 0.20227073 0.08580232 0.33019412
-0.026963172 -0.27773872 0.12996626 -0.024918014 -0.031122997 0.115158595 -0.11613466 -0.014750851
0.3058228 0.064800635 0.009821037 0.14666119 -0.07604969 0.19615471 -0.12601645 -0.22234799
0.056998085 -0.0147366915 0.27723607 -0.05394229 0.18442255 -0.045390554 -0.224393 0.17827836
-0.11155857 0.09681139 -0.019563468 -0.15237638 0.3059445 0.18246795 -0.22329283 -0.1535392
0.24290776 0.34135875 -0.32444057 0.0019315574 -0.06319236 0.2148364 0.075453736 -0.06189528
-0.12038514 0.23306113 -0.01833754 -0.060636546 0.23788132 0.15450877 0.2135579 -0.08047985
0.30709225 0.0790124 -0.06668144 0.00899604 -0.1639458 0.012407185 -0.014154919 0.19344828
0.14076667 0.18025656 0.1306829 0.27550218 -0.032979038 -0.057540953 0.14675257 0.34180874
-0.024225486 0.0062059904 -0.23113309 -0.07168396 0.21924472 -0.25282583 -0.1498546 0.17088743
-0.1897771 0.09801582 0.121098235 0.33191752 0.011857287 0.117750436 0.08692367 0.035266757
0.19538204 -0.16817388 -0.06279812 -0.0044547305 0.07735435 0.064214095 0.1882902 0.030535344
0.0071385913 0.15520844 0.009093337 -0.101031214 -0.10154523 0.15916038 -0.15685934 0.11840516
0.08474979 -0.20202202 0.12004553 -0.009274224 0.241393 0.24627075 -0.32222742 0.11769158
-0.11564512 0.17065091 -0.047045 0.12278889 0.28013402 -0.08411473 0.24379168 -0.25880003
-0.0065066246 0.23258471 -0.09920558 0.21448581 0.083643444 0.027659891 0.00030304515 0.09220941
0.04744338 0.04951241 -0.06381586 0.19517666 0.07272473 0.19706589 -0.22109134 0.05295814
0.19069281 -0.09087503 0.12826644 0.16784881 -0.18684614 -0.03730884 0.021308077 0.0746177
-0.017971344 0.07298893 0.09521847 0.28034073 -0.025696915 0.09853453 0.015845248 0.005545697
0.017281553 -0.060741115 -0.22686501 0.12695146 0.14269575 -0.026459191 0.17351802 -0.023902953
0.11865009 0.27424756 -0.3238355 0.3142211 -0.07830811 0.06854259 0.16803932 -0.16701053
0.20851918 -0.07130409 -0.33293468 -0.13144733 0.1250116 0.17844735 0.28580844 0.012709703

lstm.bias_ih_l0 f4 [120]
00000000: 6358 a33e c6d4 363e 548b 953e 4232 2a3e
00000010: ec45 473b 633e 0b3e 8c60 003e 0f6f 553e
00000020: d687 383e 919c 453d 7a0e 893e 1ae1 bbbd
00000030: 4db3 4a3e 04b7 ae3e 62da 38bc 151b fe3d
00000040: f62b 413c c8c3 4f3b 5f67 8d3e b328 723d
00000050: 0ae8 a23c 3833 803e 9b90 e93d a3f8 8a3e
00000060: b10a b83d f0c2 0b3e 2662 213e 5bc5 343e
00000070: aa53 f03d b308 813d 6e88 043e c01a d0bc
00000080: 2530 993e 5776 4c3e 6242 883c b26a 56be
00000090: e2c3 153d 9442 36bd a09d e139 a048 6c39
000000a0: 1fed a23d 9809 863e 1b5a 2a3e de0b 413e
000000b0: 3920 233d 26eb 6a3e d2d2 6c3e 33c3 d73d
000000c0: 9a84 163e 2c3f 9cbe 697d 763e f0d6 3b3e
000000d0: 9a7d be3c 4082 2e3e a257 213d 80ef 2cbe
000000e0: 8110 11be d200 403e 7dfd a7bd 5226 7abc
000000f0: 6fc0 0b3d d035 cb3d da79 44be 6cee 5c3e
00000100: 00ec 9dbe 02bb aebb db5d 9d3e b7dc fd3d
00000110: 517b c63c 3862 433e b712 b0bd 67da 41be
00000120: 11ea 7a3d 3591 953e 4b04 113e 94d5 913e
00000130: 7c01 4a3e 6d2d 433e d861 2f3e 66a6 a4bb
00000140: 0b3b 64be 029e 223d eb45 66be e58b 733e
00000150: 849a 283d 34a5 883c 4203 233e 0206 683e
00000160: 3e1a 473e 680d 2abe f5c4 7e3e 8ee1 773d
00000170: 98af ed3d a41e 8e3d fc24 a33d 2eae c83d
00000180: 4ce1 553e 4480 4cbd 9491 fe3d b9b5 a73e
00000190: e181 b43d f5d7 2dbd 207a 473c d9ff 3d3e
000001a0: 014f 073e 8127 0d3e 27b3 be3d f44e 943d
000001b0: dc9f 6d3e b086 233a addd 3e3e 8b92 b43c
000001c0: 0fa5 f63c f8a8 ce3d 378b 0b3e 7540 4d3e
000001d0: ce1d 903d f1bf 5b3e ac34 903d f982 b93d
0.3190337 0.17854604 0.2920786 0.16620734 0.0030406667 0.13598017 0.1253683 0.20843147
0.18020567 0.048245016 0.26768857 -0.09173794 0.1979496 0.34124005 -0.011282535 0.12407509
0.011790266 0.0031702388 0.27617928 0.059120845 0.019886035 0.25039077 0.114045344 0.2714282
0.08986414 0.13648582 0.15760097 0.1765341 0.11734708 0.06300487 0.12942669 -0.02540338
0.29919544 0.19967018 0.016633216 -0.20939139 0.03656376 -0.044497088 0.00043032784 0.00022533769
0.079553835 0.26179194 0.16635935 0.18852183 0.03982565 0.22941265 0.23127297 0.10535278
0.14699021 -0.30516946 0.24071278 0.18343711 0.02325325 0.17041874 0.039390214 -0.16888237
-0.14166452 0.18750313 -0.08202646 -0.015267925 0.034119066 0.09922373 -0.19187108 0.21575326
-0.30844116 -0.0053323517 0.3073567 0.12395614 0.024228724 0.19080436 -0.085973196 -0.1893097
0.06125838 0.29212347 0.14161794 0.2848326 0.19727129 0.19060297 0.17127168 -0.005024719
-0.22288148 0.03970147 -0.22487609 0.23783834 0.041162983 0.016680337 0.15919212 0.22658542
0.19443604 -0.16606677 0.2487982 0.06051784 0.116057575 0.06939438 0.079660386 0.09798847
0.20886725 -0.04992701 0.124301106 0.3275583 0.08813835 -0.04244228 0.012175113 0.1855463
0.13213731 0.13784601 0.09311514 0.072416216 0.23205513 0.00062380265 0.1863925 0.022042533
0.030108003 0.10090822 0.13627325 0.2004412 0.07036935 0.21459939 0.07041296 0.09058184

lstm.bias_hh_l0 f4 [120]
00000000: f5c6 3a3e aa66 9c3e 5483 7d3e 8af8 24bd
00000010: 3f79 a43e bbf5 8c3e 8ef6 003c ac39 073e
00000020: b716 2c3e 55c6 843e 740a fa3d 617d 5e3e
00000030: d1de 633d b4b8 703e e95a 3cbd 9fb3 463e
00000040: 963c ae3d e36a d53d 5190 013e 9596 883e
00000050: 2212 c03d ae2a 973e 7845 ac3e e4f4 3f3d
00000060: e146 9e3d 5860 923d 8820 59bd 2815 013e
00000070: 34f4 d33d bdc3 b73d 2e1c 113e 989a 5d3e
00000080: 6dd8 353e d5b6 833e 70d9 1d3d 93e9 1a3e
00000090: f463 07bd 90eb debc c0cb 033d 1ddf 073e
000000a0: d37e 783c e7f4 bf3d ecfa 483e 16d7 663e
000000b0: e8ff 7f3e e49b 123e 9382 733e f78a 2ebd
000000c0: 0c37 443d 745a e8bd 5c8c 9bbc 532b 0dbe
000000d0: 0999 35bd 5b8e 9f3d 6078 0ebe 413f 853b
000000e0: 7e63 083e fcb6 c1bd 6a92 59bb e954 0dbd
000000f0: a8b5 873d 4499 473e b26d 00be 5251 bc3d
00000100: e22a 8fbe 9d8b 573e 0da8 c33c 0c85 f7bd
00000110: e550 803d 34dc 543c 66be 4cbe ab74 41be
00000120: 2937 353e f005 053d f527 0c3d 84c0 933c
00000130: 33e7 753d 76f6 94bd 719b ee3c 235b ecbc
00000140: 8be0 8bbd d9b2 573e 7f5d 64be c6fe 983c
00000150: 0624 273d faf8 003d 5e71 17bd 4611 573e
00000160: 6233 7c3e ca48 e4bd 84ad 9d3e d67b 503c
00000170: 0a97 9c3e fa0a 273e 0134 923c ad2f f13d
00000180: ecb8 edbb 1f00 fbbd 39f1 5e3e f790 563e
00000190: dc28 f8ba d3af 8a3e 2a92 f13d ea73 423e
000001a0: 9936 2c3e d6ea db3d 1fcf 443e 4a38 9a3e
000001b0: 800d 1f3c 9683 8c3b 2760 b33d 7e6f 243b
000001c0: 14c5 063e 8aaa 8c3d 795d d9bb 7d8f 313e
000001d0: 8f8b 1a3e b57c 673d d85c 1c3e bbcd 93bd
0.18239959 0.30547076 0.24757129 -0.040276088 0.32123753 0.27531227 0.007871283 0.13205594
0.1680554 0.25932565 0.12209025 0.21727516 0.055632416 0.23507959 -0.045985136 0.19404458
0.085076496 0.10420778 0.12652709 0.26677385 0.093784586 0.2952475 0.3364675 0.046864405
0.07728363 0.07147282 -0.05300954 0.12605727 0.103493124 0.08972881 0.14170906 0.21641004
0.17758341 0.25725427 0.038537443 0.15128164 -0.033054307 -0.027211934 0.032176733 0.13268705
0.015166956 0.09372883 0.19626969 0.22542986 0.24999964 0.1431728 0.23780279 -0.042612996
0.04790406 -0.113453776 -0.018987827 -0.13786058 -0.0443354 0.07790824 -0.13913107 0.0040663783
0.13319203 -0.094587296 -0.0033198842 -0.034504805 0.06626445 0.1949206 -0.12541845 0.09195198
-0.27962404 0.21049352 0.023883844 -0.120859236 0.062654294 0.012991954 -0.19994506 -0.18892162
0.17696823 0.032476366 0.034217793 0.018036135 0.060034942 -0.07273571 0.029126855 -0.028852051
-0.068299375 0.21064319 -0.22301291 0.018676173 0.04080584 0.031487443 -0.03697335 0.21002683
0.24628976 -0.11146696 0.30796444 0.012724837 0.30583984 0.16312781 0.017847063 0.117766716
-0.0072547104 -0.122558825 0.21771707 0.20953737 -0.0018933075 0.27087268 0.11795457 0.1898953
0.16817702 0.10738151 0.19219635 0.3012107 0.0097078085 0.004288147 0.08758574 0.0025090869
0.13161117 0.06868465 -0.0066334573 0.17339893 0.150923 0.056515414 0.15269792 -0.07216974

lstm.weight_ih_l0_reverse f4 [120, 30]
00000000: 2154 09bd 7c94 5abe 7d1d a53d 0eba d83b
00000010: 943b 823e 482a 303d 426a cfbd 1482 003e
00000020: 6d0a 153d 45b7 d43b cb9d 813c 51c3 513e
00000030: ce51 5dbe 108d 99bd d847 d4bd 4b1d 213e
00000040: 962d 8abb ecd7 8d3e f420 a0bd 12e1 983e
00000050: e0f5 e73d b774 0b3e 422e 90be e82b 903c
00000060: f106 2fbe 6372 583d 13b5 9dbe 7f85 a43e
00000070: 9d0d 88be 0920 c7bd dfb1 923e 35d4 23be
00000080: c56a bb3d f2cd 5abe 8c46 32ba 91ca 273e
00000090: 7e06 31bd 7404 8c3e f20f 0ebe fcb8 dfbd
000000a0: 668f 4fbe cc0e 203e c305 403c 50dc 9fbe
000000b0: f956 96be d77d 393c de1b 0abe b946 55bd
000000c0: ef13 b43c e420 c73d a13c 213e b21a 3e3e
000000d0: 6fa9 5dbe b18b c43d 8067 283c ee9c c3bd
000000e0: 3f4c 313e e8a5 793e 4d59 90bc fa1f 4cbe
000000f0: cfa3 6fbc 4e04 6cbe fbee ff3d f8fd 3abe
00000100: f581 b6bd eadb db3b 52f6 d53d 3401 ea3d
00000110: 9638 cebd 4aa8 2bbe f3ff 5fbe 0566 8b3e
00000120: bf51 073d 2301 19bd dd90 743d e0e5 ef3c
00000130: a779 9d3e ccd5 4fbd 991c d63d 8f42 c9bb
00000140: 0dff 27bd afab 533e 5fbc e53b 5135 4dbe
00000150: 5cb5 7cbc d666 8f3e e2f0 18be 688e 403d
00000160: eb94 7fbd a136 01be cd34 4cbe 207e 893c
00000170: 6890 a4bd 9479 ad3c c595 6e3d 24af 47be
00000180: ec08 2b3a 3246 0cbe ce0d 5b3c e82a c63b
00000190: 4884 e0bb 1b27 e6bc 38ee eebb ccf6 dfba
000001a0: 5a79 4f3e 8257 0d3e 22a0 96bd 6459 943e
000001b0: 724b a13e 02db ef3b ac0b 193b cf13 9b3e
000001c0: 7f78 003e 7373 e8bd f632 4fbd ad83 37bd
000001d0: 2c9c 573d e0c0 c1ba b042 993d 14c8 8239
000001e0: ca05 f5bd b720 5f3e 65b7 263e ca24 103d
000001f0: 6a56 0f3e 9a61 823e a307 1dbd 06d7 1b3e
00000200: 29a3 113e 5f24 743d 8f9a 8bbd d5a0 7cbe
00000210: 2ba1 183e e4e0 a5bd 34cf 843e 8c92 1abe
00000220: 9e70 683e c648 653e ace5 633d 0597 47be
00000230: 7fbf 44be 0312 423e 3ab7 8abd c953 80be
00000240: 8bf2 94be d77a 863e d5bd d63a ed05 aa3d
00000250: 9310 083e 497b 953e 3bd4 3dbd 2441 a1bd
00000260: a545 5a3e 6fa0 55be 7462 74bd 4988 093e
00000270: 7e25 fabd 89f7 59be 3d9f d73d d657 c43d
00000280: 6c48 92bd c249 bd3c 29d1 433e 7ab5 88be
00000290: 35cd 063d cdd7 4a3e e36d 6d3d d733 803c
000002a0: 7d80 e1bb 4f8b 063d c095 cd3d 0ecb 553e
000002b0: a7f2 0bbc 7fff 15be 9e41 e1bb ace0 94bd
000002c0: ee42 c13d 6b3f f3bd e9a7 5cbe cb63 9cbd
000002d0: 20a3 1b3d 432d 71be 4078 593a 39a0 abbe
000002e0: 00d6 183d 1da4 2a3e 5bac 7b3d a409 6c3c
000002f0: c2d7 bbbd c45b 9ebe 3788 58bd f135 cc3d
00000300: 58a3 bebc 8ea0 b2bc db85 533d 1af2 9d3e
00000310: 795b cf3d 8dcb 87be 48ca 913e b545 20bc
00000320: 0053 a5bb c202 773e 66ad 0fbe 8cd5 2ebe
00000330: b017 783d ae42 1b3e b8b4 d6bd 717e 5b3e
00000340: adae bf3d 7e2a 90be 235f 293d a842 03be
00000350: 1b98 10bd a5b5 223d da62 703e 3973 21be
00000360: e574 4a3e 3179 9fbd e936 19be fa16 423d
00000370: fda2 1d3d 06c3 033e a735 8dbd 89f6 0ebe
00000380: dbda 8dbd be3e 59be a97c 583e e5c1 883d
00000390: 9b2a 8fbd 5335 63be fac3 57be bdd6 bcbd
000003a0: 883f bebc e4d1 73be a929 6ebe 2cbe d73d
000003b0: 5b3b 57be dd4c 223e e1c4 813e 5984 a13d
000003c0: f8fa 173d cb65 4bbe c7f0 acbe 306e 80be
000003d0: 95fd 5c3d e5f9 1a3c b032 2f3d d840 2b3e
000003e0: 3c79 2b3e d588 a8be efbf 973d 9bc4 793e
000003f0: d996 90be b723 09be 446a 723e d4ed 973e
-0.033527497 -0.21345705 0.08062265 0.0066139763 0.2543608 0.043009073 -0.10127689 0.12549621
0.036386896 0.006491574 0.015822312 0.20484664 -0.21613237 -0.07497609 -0.103652656 0.1573383
-0.00421686 0.27703798 -0.07818785 0.29859215 0.11326194 0.13618742 -0.28160292 0.017599061
-0.17092492 0.052843463 -0.3080221 0.321331 -0.26572886 -0.09722907 0.2865133 -0.1599892
0.09151224 -0.21367624 -0.00068006734 0.16385867 -0.043219082 0.27347147 -0.1387327 -0.10923955
-0.20269546 0.15630645 0.011720124 -0.31222773 -0.2936323 0.011321506 -0.13487193 -0.0520694
0.021982161 0.0972307 0.15745784 0.18564871 -0.21646665 0.095969565 0.010278583 -0.09551416
0.17314242 0.24379694 -0.017620707 -0.19934073 -0.014626457 -0.23048517 0.12496754 -0.18260944
-0.08911506 0.0067095654 0.104473725 0.11426011 -0.10069387 -0.16763416 -0.2187498 0.27226272
0.033036944 -0.0373546 0.059708465 0.029284418 0.30756876 -0.050741002 0.10454673 -0.0061419676
-0.04101472 0.20670961 0.007010981 -0.2003987 -0.015424099 0.28008145 -0.1493564 0.04701081
-0.06239788 -0.12618496 -0.19942017 0.016783774 -0.08035356 0.021176137 0.0582483 -0.19500405
0.0006524462 -0.13698652 0.0133699905 0.0060475953 -0.0068517067 -0.028094819 -0.0072915815 -0.0017087101
0.20261136 0.13802913 -0.07354762 0.2897445 0.31502873 0.007319809 0.0023352904 0.3028855
0.12545966 -0.11350145 -0.05058571 -0.04480331 0.05263917 -0.0014782213 0.07483423 0.00024944602
-0.11963995 0.21789823 0.16280897 0.035191335 0.13997808 0.2546509 -0.03833736 0.15218744
0.14222397 0.059605 -0.06816589 -0.24670728 0.1490523 -0.08099535 0.25939333 -0.15094966
0.2269921 0.22391042 0.055638954 -0.19491203 -0.19213675 0.18952183 -0.06773229 -0.25063923
-0.29091296 0.26265594 0.0016383479 0.083019115 0.13287573 0.29195622 -0.046344977 -0.07873753
0.2131563 -0.20861982 -0.059664205 0.13430895 -0.12214182 -0.21285833 0.10528419 0.09587066
-0.071427196 0.02310646 0.19122757 -0.26700956 0.032910544 0.19808884 0.057966124 0.01564972
-0.006881772 0.0328477 0.10038328 0.2087824 -0.00854174 -0.14648245 -0.0068742773 -0.07269415
0.09436594 -0.118773304 -0.21548428 -0.076362215 0.037997365 -0.23552422 0.0008295812 -0.33520678
0.03731346 0.16664167 0.061443668 0.014406595 -0.09172012 -0.30929387 -0.05286428 0.09971226
-0.023271248 -0.021805074 0.051641326 0.3084877 0.10124869 -0.26522484 0.2847464 -0.009782244
-0.0050452948 0.24122146 -0.1403099 -0.17073649 0.060569465 0.15162155 -0.10483688 0.21434952
0.09359489 -0.2815742 0.041350495 -0.12818396 -0.03530131 0.03972401 0.23475209 -0.1576661
0.19771154 -0.07786787 -0.14962353 0.047385193 0.038485516 0.12867364 -0.06894999 -0.13961233
-0.06926509 -0.2121534 0.21141304 0.066776074 -0.06990548 -0.2218831 -0.21070853 -0.092206456
-0.023223653 -0.23810536 -0.2325808 0.10534319 -0.21018736 0.15849634 0.2534552 0.078865714
0.037104577 -0.1986305 -0.3377745 -0.25084066 0.053952772 0.009458994 0.04277295 0.16723955
0.16745466 -0.32916895 0.07409655 0.24391405 -0.28240088 -0.1339253 0.2367335 0.29673636

lstm.weight_hh_l0_reverse f4 [120, 30]
00000000: ba17 75be ecb4 a33d 9440 e23d 95cf 503c
00000010: 2d2d d0bd 3f91 2e3e 2276 afbd 8c10 623e
00000020: 8d09 82be 4db2 8e3e b4be 0abd 3d3f 0d3d
00000030: 3616 2e3e 1c46 653e cf39 87be e59b 423e
00000040: 00bf 933d a2c1 093e 8f14 8dbd 5050 96be
00000050: a7fc 143e c2c5 253e e07e b7ba b7d1 373e
00000060: 566f 2a3e 1378 35bd 9072 95be d9eb b6be
00000070: 6fcb 063d 7c16 453e 9a3f 6dbe 6412 1e3d
00000080: 3d97 ab3d a7b9 90be 9819 a4bc c401 73be
00000090: 4ff4 9a3d 8df4 8d3d 3576 2f3d 6717 64be
000000a0: fae3 3f3e bb77 c03d 1e81 923d 810f 263e
000000b0: 1ae1 85bd 7a20 42be 38bd febd b91b 50bd
000000c0: 91dd c5bd bc02 e53d beba b53c 93fa 463e
000000d0: 0f75 70bd 4448 13be fb39 913e d2c9 9b3d
000000e0: 1515 abbd fed6 0dbe d04a 10be 4aaa 813e
000000f0: 115a f7bd 6369 b43d 2c2d 7d3d 4338 913d
00000100: a447 1abd 4800 4b3e bfe8 fbbd 938f 7a3d
00000110: 4d2f 3f3e 2183 24be f93c 503e 316a 5e3d
00000120: ea05 81be 972b 653d c414 183d 0802 45bd
00000130: 4645 10bd 9fc5 b0bd b853 683d dcce 1fbe
00000140: 82c6 583e 6991 5f3e 0eb8 003d c1c7 5e3e
00000150: 8dfc a6bd 1ce7 153e e6aa 8e3c 70bf d03b
00000160: 46c6 6b3e 2b67 0abe 05e4 48be 1617 883d
00000170: 68fc 5f3e 7689 31be 30af 0e3c 7dfe 0dbe
00000180: 4178 78bd 44b8 983e 5f2c 5e3d 4837 06be
00000190: ca8f 0bbe b346 63be e269 53be 4bfb 023e
000001a0: 11d5 0bbc 3918 3bbc 9e1f 32be 136d 9f3d
000001b0: 7beb b3be 8ff3 5cbe 2f8e 263e efbf b13e
000001c0: 7518 ce3d 33d8 bc3d 95c0 813e b03f 613e
000001d0: c62f 13bd e1ae 0fbe 9348 b53d a43a 2cbe
000001e0: cdf7 f2bd 07ba 3dbc b597 50bd dc6d 033e
000001f0: f168 fd3d 8c44 15bd ef51 8f3d 49bb b53d
00000200: fad5 f8bd 850d 883d ab30 a3bd 0c9d 703e
00000210: 3f22 16bd 667f 993d 1697 a9bd 9c0f cf3b
00000220: c02b 0fbc 5e18 093d a973 143e df05 8ebe
00000230: 89ef 0f3d 5bbb b03c e2eb 433d 9b76 a6bd
00000240: fc5e 9c3d 560e 2a3e ea42 20bd b047 51be
00000250: 3b71 dc3c 881d 85bd a031 d1bc 7047 a23d
00000260: b0c3 203e 3f33 5c3e c8d7 70be 9b51 a23d
00000270: 67e9 65be 95e1 9f3d 61b9 51bd fdff b93d
00000280: 67f8 783e dc42 383d 709b bc3d 3f99 2f3e
00000290: 5553 66be f86c 4c3d cc3d 6e3d d908 25bc
000002a0: eb5f 3e3d e2cd f1bd 4848 ac3e 87f6 773e
000002b0: fa85 693d 8877 fd3d b040 c6bd 19b1 cdbd
000002c0: 795f a13d 9490 82be bf6e 003e 4b8c 28bd
000002d0: 2d35 24be 3e44 893d 7d89 66bd 6538 fd3d
000002e0: 3d06 89bd 6670 bbbc 0f5d e5bd f49c 843e
000002f0: 2946 b2bd b45d 90be acb2 633d a046 0fbe
00000300: 8e68 e1bd 283f 2dbc 374f 7fbd 038d 94bd
00000310: f64b 6fbc 907f 21bd d771 293d d237 773c
00000320: 69cf a33d 04ea 863e 9577 823e 3d30 17bc
00000330: 7dcc 773e 2ad0 023e d72f 40be e5fb 8fbe
00000340: 94ad c83d 1a94 d8bd 840b fd3c 39a7 6e3d
00000350: dc5f 02be fe0d be3b 0265 78be 27fa d93d
00000360: 99dd 09be f3b8 5e3e 99f2 003e f6bf 0cbe
00000370: 7783 333e e1bf 20bd 7ae3 8b3d 6c97 b63d
00000380: 4a25 84be 3e80 38bd c60f 2f3e 5fbc 8cbd
00000390: cb5d 85be 8048 3abc 6b3b f83d 5042 ef3d
000003a0: ca91 213d 01d5 5d3d 4588 273e 51d4 4f3e
000003b0: 7852 6dbe c3f2 31bd 38f6 aebd 0c05 54be
000003c0: 27a3 373b 8e96 813e 7d6f b8bd 8e15 e4bd
000003d0: caa9 75bc 6b82 21be fc26 6f3d 6b2d 543d
000003e0: 6831 acbc aff0 8cbe 9901 dc3b 3657 8cbc
000003f0: 723f 93be 6047 2f3e 6bd1 103d 8b21 4e3e
-0.23934832 0.079934925 0.110474735 0.012744804 -0.101648666 0.17047594 -0.08567454 0.22076625
-0.25397912 0.27870408 -0.033873275 0.034484137 0.1700066 0.22390026 -0.26411292 0.19004782
0.07214165 0.13452771 -0.06888687 -0.2935815 0.14549504 0.1618872 -0.0013999604 0.17951094
0.16644034 -0.044303965 -0.29188967 -0.35726812 0.032908853 0.19246858 -0.23168793 0.038591757
0.08378456 -0.28266641 -0.020031735 -0.23731142 0.075661294 0.0693141 0.04283734 -0.22274552
0.1873931 0.09397837 0.071535334 0.16216852 -0.06537075 -0.18957701 -0.12438434 -0.05080769
-0.09661401 0.11182162 0.022183772 0.19431524 -0.058705386 -0.14383036 0.28364548 0.076068535
-0.083536305 -0.13851544 -0.14091039 0.25325233 -0.12077726 0.088091634 0.061810657 0.07090809
-0.037665978 0.19824326 -0.12300252 0.06117208 0.18670388 -0.16065647 0.20335759 0.05430049
-0.25199825 0.055949774 0.03712918 -0.04809764 -0.035222314 -0.08631443 0.056720465 -0.15606254
0.21169475 0.21832813 0.03142553 0.21755888 -0.08153639 0.14638942 0.017415475 0.0063704774
0.23024854 -0.13515918 -0.19618233 0.06645028 0.21873629 -0.17337593 0.00870876 -0.13866611
-0.060661558 0.29828084 0.054241534 -0.13107026 -0.1362907 -0.22194938 -0.2064586 0.12791173
-0.008534686 -0.011419349 -0.17394873 0.07784476 -0.35140595 -0.21577285 0.16265176 0.34716746
0.100632586 0.09220924 0.2534224 0.21996951 -0.035934232 -0.14031555 0.08851733 -0.16819245
-0.118636705 -0.011579997 -0.05092593 0.12834877 0.123735316 -0.036442325 0.069980495 0.088736124
-0.12150188 0.06643204 -0.07968267 0.23497409 -0.036653753 0.074950024 -0.082807705 0.0063189995
-0.008738458 0.033470504 0.14497246 -0.27738854 0.035140548 0.021573713 0.047832377 -0.08128091
0.07635304 0.16607031 -0.039126314 -0.20437503 0.026909461 -0.06499773 -0.025536358 0.07923782
0.15699649 0.21503924 -0.23519814 0.07925721 -0.22452317 0.07806698 -0.05120218 0.09082029
0.24313508 0.044985637 0.09209335 0.17148302 -0.22492726 0.04990861 0.058164403 -0.01007291
0.046478193 -0.11806847 0.33648896 0.24215136 0.057012536 0.123763144 -0.09680307 -0.10043544
0.07879538 -0.2550093 0.12542246 -0.04114942 -0.1603591 0.06702469 -0.056283463 0.12364272
-0.06690643 -0.022880744 -0.1119939 0.25900996 -0.08704788 -0.2819649 0.055590317 -0.13991785
-0.1100627 -0.01057414 -0.062331405 -0.07253458 -0.014605513 -0.039428294 0.04136833 0.015088992
0.07998545 0.26350415 0.2548186 -0.0092278095 0.241991 0.12774721 -0.1876825 -0.28121868
0.097987324 -0.10575123 0.03088928 0.058264945 -0.1273188 0.005800008 -0.24257281 0.10643416
-0.13463439 0.2175024 0.12592544 -0.13745102 0.17530619 -0.03924549 0.06830497 0.089156
-0.258097 -0.045044176 0.17095861 -0.068718664 -0.2604812 -0.011369824 0.12120708 0.1168257
0.039445676 0.054158214 0.16360576 0.20295836 -0.2317599 -0.043444406 -0.08543056 -0.2070505
0.002802083 0.25310177 -0.0900564 -0.11136924 -0.014994094 -0.15772407 0.058386788 0.051801126
-0.021019652 -0.27527377 0.0067140576 -0.01713143 -0.28759342 0.17117071 0.035355967 0.20129983

lstm.bias_ih_l0_reverse f4 [120]
00000000: 0e65 553e 6072 993e 2b30 2f3e e067 15bc
00000010: 18b1 0b3e 4543 093d afda 853e ed01 5b3e
00000020: fb42 00bc 4d25 8b3e 680d 813e 00c9 6e3e
00000030: c098 0639 9d5f 593d f37a 433d 795e ce3c
00000040: a3f3 26bd 5a6a 5bbd eb48 223e c2ac 3c3e
00000050: 1619 ed3d de26 483e 9d95 a83e 0069 6b3d
00000060: 355b 433d 9afd 313c e4df e33c 3a5b a23d
00000070: 5e93 a33d 1e93 80bc 9c47 9cbc 0966 04bc
00000080: 1383 ac3e 5ffe 85bd 1d84 2ebd c499 783d
00000090: d3f6 0abe 467b 8c3b 1b84 953e ec91 a1bc
000000a0: 0d15 21be a1f6 2cbd 00bd 9f3e 3a5e ccbd
000000b0: 00f5 e0bc 5035 973d 50f8 653d 9723 d93d
000000c0: fc77 24bc ef04 213e 0ef1 563e 114f 03bd
000000d0: 1df8 ee3d a13f 253e b57d a13d 724e ac3d
000000e0: 4f07 6f3e 7b8c 373e 8e10 ad3d 01f7 633e
000000f0: 0c8a 9dbe 6009 2b3e 5678 96bd fd7d 99bd
00000100: 4563 82be ad6b 863d a852 90bd 6c43 383e
00000110: 068b 043e 1c32 223c ad7c dcbb 8049 cd3d
00000120: d56a 433c 9f21 963e 7119 11be 0a2a 723e
00000130: 0d4a 23bd 5110 333e d87e 61be 7a15 1bbe
00000140: 2e77 a9bd f5ab abbc 0d34 eabd 8ba6 e2bc
00000150: e1ff 0c3e 97bd 393e bfb6 2dbe 1050 41be
00000160: 891f 50bd 68f5 eb3d d241 803e e0ba 4a3e
00000170: de99 6d3e 6f57 b53b 955c 8e3e 7c11 9e3d
00000180: 5345 363e 0db0 563e 6ddd 503c 183d a23e
00000190: 8bd8 f93d 4db3 963e 5e30 4f3e 609d b0bc
000001a0: 59ea a83d 5837 4cbd f26c 6b3e e113 453e
000001b0: e616 7d3c 65d7 4f3e f087 b939 27fc 843d
000001c0: 07e0 a83e 7d24 6c3e 1524 b1bd fb14 613e
000001d0: 4f3b 7cbc 6dba 3a3d 58f9 443e 0688 3f3d
0.2083933 0.29970074 0.17108218 -0.009119004 0.13641775 0.03351142 0.26143405 0.21387453
-0.007828469 0.27176896 0.2520554 0.23318863 0.0001283614 0.0530697 0.047724675 0.025191532
-0.040759694 -0.05356822 0.15848128 0.18425277 0.115770504 0.19546077 0.32926646 0.057473183
0.047694404 0.010863686 0.02781672 0.07927556 0.079870924 -0.015695151 -0.019077115 -0.008080968
0.33693752 -0.06542658 -0.04260646 0.060693517 -0.13570718 0.0042871563 0.2920235 -0.019722901
-0.15730686 -0.04222739 0.31198883 -0.0997891 -0.027460575 0.073832154 0.056145012 0.10602491
-0.010038372 0.15724538 0.20990393 -0.032057825 0.116684176 0.16137554 0.07885305 0.084134
0.23342632 0.17924683 0.08450423 0.22262193 -0.30769384 0.16702795 -0.07347171 -0.074947335
-0.25466362 0.06563506 -0.070470154 0.1799447 0.12943658 0.009899642 -0.0067287297 0.10023785
0.011927326 0.29322526 -0.14169861 0.23648849 -0.039865542 0.17486693 -0.22021043 -0.15144911
-0.08274685 -0.020956019 -0.11435709 -0.027667305 0.13769485 0.18138729 -0.16964243 -0.18878198
-0.050811324 0.11521417 0.25050217 0.1979785 0.23203227 0.0055341045 0.2780501 0.07718179
0.17799883 0.20965596 0.0127481045 0.31687236 0.121995054 0.2943367 0.20233294 -0.021559417
0.08247823 -0.049857467 0.22990778 0.19245864 0.015447354 0.2029701 0.0003538723 0.06493407
0.3298342 0.23060794 -0.0864946 0.2198066 -0.015395 0.045587946 0.19235742 0.04676058

lstm.bias_hh_l0_reverse f4 [120]
00000000: 8911 e53d 8d93 963e 9bcd 1d3e 78f6 2e3e
00000010: 9546 01be 2295 563d 9cf3 973d 9ffe 8f3d
00000020: 101d 1f3e 27d4 0e3e 1a12 643e f84f 923e
00000030: 46d9 d43d 47b0 60bd 77ba 313e 2174 a03d
00000040: bfe1 d93d a256 1a3c 6d71 593e e5f5 543e
00000050: 36e2 873d 9e5a 623e 4734 a23e 33e2 8b3c
00000060: b78d 9b3d ca8f 683b 10ee 613e 947c 573e
00000070: 57c8 6a3e 1702 8c3d bc59 f93d 5c77 3e3e
00000080: 52aa 423e bd12 df3c b84c 85bc 6eb5 c93d
00000090: fcf1 8bbe 6cc6 903e 58a6 893d 2e90 2b3d
000000a0: c48a bebd 7b57 ae3d a5c2 85bc 0a0f 28bd
000000b0: f9ee 823e 6294 d8bd f4d6 013d 37ae 9b3e
000000c0: 1d7b 493e 2a4c d0bd 6747 683e 9a21 843e
000000d0: 90d8 02bd a481 8cbd 78cd 1cbe e33a 813e
000000e0: 95c2 023d 1a77 923e 6683 2f3e 1381 4a3e
000000f0: 4768 69be bbb0 ab3d eae7 093e 2168 733e
00000100: 2bfb a3bc e190 f0bd e089 e5bd 0c7d 353e
00000110: 25c4 683e 8e03 4dbe 7da8 ce3d 26d1 8cbd
00000120: 51e3 613d 2263 893e a509 10be a56c 2cbc
00000130: 521f a83c 3d5e 213e 44f5 7fbe 4f1a 64be
00000140: 20b4 923c a0cd 473e 0934 66bd 10fb a23b
00000150: 13a2 c43d bfc6 793e fa73 52be 0880 f6bb
00000160: 1e45 203e d220 30be 651b 4d3e 33bd 4b3e
00000170: 7a54 bb3d f2fc 633e 9f07 d73d 9614 1ebe
00000180: 2ea8 443c 0365 393e 46ae 473e 6e85 153e
00000190: 8c8c 033d e462 e33c 2581 543d c355 e93d
000001a0: de73 cc3b 4231 723e 5566 873e c6e7 a53e
000001b0: 1bc2 2b3e 3af2 803e 8e58 d13d 6133 853e
000001c0: 491b 883e f386 283d e8f2 993d 637e 593e
000001d0: f284 74bc 2172 3dbc da99 803e 26f0 923e
0.11184985 0.29409447 0.15410464 0.17086208 -0.12624581 0.052388318 0.07419512 0.07030987
0.1553843 0.13948117 0.2227253 0.28576636 0.10393004 -0.05485561 0.17356287 0.0783465
0.10638761 0.009420069 0.21234675 0.20796926 0.06634943 0.2210488 0.3168051 0.017075634
0.07595389 0.0035486096 0.2206347 0.21043617 0.22927986 0.06836336 0.121753186 0.1860022
0.19010285 0.027230615 -0.016271934 0.09849058 -0.27333057 0.28276384 0.06721181 0.041885547
-0.09303811 0.08512779 -0.016328165 -0.041029967 0.25572947 -0.10575177 0.031699136 0.30406353
0.1967587 -0.10170777 0.22683488 0.25806886 -0.03194481 -0.068606645 -0.15312755 0.2524024
0.03192385 0.28606492 0.17139968 0.197758 -0.22793685 0.08383318 0.13467374 0.23770191
-0.020017227 -0.117463835 -0.11207938 0.17723483 0.22731073 -0.20020887 0.1009073 -0.068758294
0.055148426 0.26833445 -0.14066179 -0.01052395 0.020522747 0.15758605 -0.24995905 -0.22275661
0.017908156 0.19512033 -0.05620197 0.0049737766 0.09601226 0.24392222 -0.20552054 -0.0075225867
0.15651366 -0.1720002 0.20029981 0.19896393 0.09146972 0.2226446 0.104995005 -0.1543754
0.012002988 0.18104939 0.19500074 0.1460168 0.032116458 0.027757116 0.051880974 0.11393311
0.0062393984 0.23651603 0.2644526 0.32403392 0.16773264 0.25184804 0.102219686 0.26015761
0.26583317 0.041144323 0.07517034 0.21239619 -0.014924275 -0.011562855 0.2511738 0.28698844

classifier.weight f4 [6, 60]
00000000: d77d 85be 64a9 7fbe 6a86 bd3d 75d0 1fbe
00000010: cdfd 8e3e 5333 29be 4670 13be 9115 3f3e
00000020: d0ca 9bbd 82a0 86bd 38db 763e c674 f43d
00000030: fdc0 52be 867a 29be 6580 2cbe 8f1e 76be
00000040: 7279 88be bd76 60bd bc5f 03be 0530 a9bd
00000050: 1e5d 293e 8d57 e5bd f882 3a3d 16b1 e6bd
00000060: 0c07 13b7 7b9e 1ebd 7bca 11be b526 66be
00000070: d2d5 70be 5e28 a53d 7460 873e 6e6c 40be
00000080: 6d64 27bd 72c6 9abd 72b9 1a3e 22b2 e83c
00000090: 1fc3 bbbc a36e 9cbd 20ab 17be ef38 4e3d
000000a0: 16ce 8dbc c2d2 e53d 0cea 523e 15c7 f0bc
000000b0: 18f3 573e f752 e8bc ceb4 80be a46b 13be
000000c0: b7e3 423e 1ca4 473e 4008 86be 4cce 52be
000000d0: 0ced 18bd ab97 333d c0b9 4fbd 9f36 41be
000000e0: 25e2 7e3e 99ef 4f3e e743 3dbe 2963 dc3d
000000f0: b8c7 2dbe 74c0 4ebe 2617 5b3e 1d0e afbd
00000100: 8890 6d3e 757e 75be 0b69 38be e911 003e
00000110: 3ab4 c1bd 8143 3bbe c5de 263e 674e 633d
00000120: d642 c2bd 745e 32be e49a 80be acc0 7dbe
00000130: dbb9 3bbe 0471 4cbd 8f0e 463d 8bc0 e73d
00000140: b469 4c3e 5c71 c9bd 59f1 803e b4e4 64be
00000150: 31fc 48bd 16c1 19bd d09f ffbd 065a 5ebe
00000160: 50ba 61be 0059 543d 7fde 443e f9d8 7ebe
00000170: b31e 42be 8e19 d33c 708c 033c d483 083e
00000180: e47c 3c3e eaf7 7bbe 66fe dcbd e24d 863e
00000190: 496d c23d 0c7a 573d 7d88 323e 4676 51be
000001a0: 4cca 713d b069 27be 262c 2fbe bb6b 9dbd
000001b0: d929 2e3e aac6 443e 9b80 78be b2ee 27be
000001c0: 996f 44be a710 eabd 1146 a6bd f268 b0bd
000001d0: e363 563e 626c 103e dd33 6cbe 0ed1 633e
000001e0: ce1c 5f3e c1dc 203e 7b7c 943e 505b a63d
000001f0: 002f 8f3e 3a81 83be a71b 1b3e 4014 383d
00000200: 5c5e ccbd f68b 8c3e 474b 53be 1b12 763e
00000210: 6b39 99be 9d4b c3bd 0bfb 863e 2375 83be
00000220: 6ae4 263e 4bb6 90be 8821 a5bd 03fe 893d
00000230: a065 b93c 2c58 963e 9b28 97be 6e66 1d3e
00000240: a085 66be 5946 61be 943a e63d 0ef7 763e
00000250: a1fa 88be 7586 f43d 4016 f6bd 025e 7b3e
00000260: 7760 913e 8441 893e 609f d8bc 9c32 573e
00000270: 1c5d 94be 4b1b 653e c150 8e3e 28fb 6e3e
00000280: 75f5 91be 1ffc 5bbe 026b 953d 4741 62bd
00000290: 838d 72be 5f66 7f3e a396 f83d fdfb 883e
000002a0: 2f5d 33be ec45 4cbe daf0 943e 5de6 833e
000002b0: b834 1b3e 480c 97bd 0e2a 00be 720c 833e
000002c0: eb28 16bd d4cb 7bbd d888 853e 5c5c 1cbe
000002d0: 3314 c73d 6e9d 42bd 9329 21be b296 b2bd
000002e0: cb2e 2bbe 5307 6d3e 2d59 98be 770c b7bd
000002f0: 6e60 063d 8846 52be 03fa 813e bc5f 45be
00000300: 48b5 843e 1e30 90be d82c 8ebe 924e 373e
00000310: b6ad 6dbe bd6e 643e a988 02be d5c2 563e
00000320: 68bc 4c3d f836 93be 7740 02bc 6fc3 0cbe
00000330: 5712 9cbd 018b 86be e653 9cbe aa69 63be
00000340: 0e7c 483e 34bb 8ebe 91c6 5b3e 9fe1 bc3d
00000350: a1ae 2fbe d8ce 833e b5ee 163e 1a6e 0ebe
00000360: bb1d 633e 090b d4bd 2239 5ebe f19a 43be
00000370: ebf4 bb3d 198e 6d3d 5918 babc d613 e43d
00000380: 958c 6e3e bd37 c2bd 4e9e 163e 5f92 2abe
00000390: afd9 673e 405b 663e 7055 1abe fd02 39be
000003a0: aad3 923e cd54 943e 609b 013e f235 3fbe
000003b0: 6d31 cfbc 401a 243e 6269 583e 9220 5e3e
000003c0: de94 2c3e f714 763e 9d8b 7cbe d63e f23c
000003d0: 5ca5 493c d849 be3d 19e1 f63d 788a 6c3e
000003e0: a811 43be 5117 213e 9030 cb3d 6d35 6fbe
000003f0: 05a7 3d3e b345 6a3e 9183 a6bd 5c5e 9b3d
-0.2607257 -0.24966961 0.09254153 -0.15606864 0.2792801 -0.16523485 -0.14398298 0.1866057
-0.07607043 -0.06573583 0.24107063 0.11936335 -0.20581432 -0.16550645 -0.16845854 -0.24035095
-0.26655155 -0.054800738 -0.12829489 -0.08261112 0.16539428 -0.111983396 0.045535058 -0.11264245
-8.7635235e-06 -0.038725358 -0.14237396 -0.22475703 -0.23519066 0.0806434 0.26440775 -0.18791363
-0.040867258 -0.07557382 0.15109804 0.028405253 -0.02292019 -0.0763829 -0.14811373 0.050347265
-0.017310183 0.112218395 0.20597094 -0.029391805 0.21088827 -0.028359873 -0.25137943 -0.1439653
0.19032179 0.19496197 -0.2617817 -0.20586509 -0.03733544 0.043845814 -0.050714254 -0.18868493
0.24890955 0.20306243 -0.18482934 0.10761101 -0.16970718 -0.20190603 0.21395549 -0.08547614
0.23199666 -0.23974021 -0.1800882 0.12506832 -0.094582036 -0.1828747 0.16295917 0.055494692
-0.09485404 -0.17418844 -0.25118172 -0.2478053 -0.18332617 -0.049912468 0.048353728 0.113160215
0.19962198 -0.09836075 0.25184134 -0.22352868 -0.049068633 -0.037537657 -0.12481654 -0.21714029
-0.22043729 0.05184269 0.192255 -0.24887456 -0.18957023 0.025769021 0.008029088 0.13331538
0.18407017 -0.2460629 -0.1079071 0.26231295 0.09493501 0.052606627 0.17434879 -0.20455274
0.059030816 -0.1634891 -0.17106685 -0.076865636 0.17008151 0.1921641 -0.24267809 -0.16399649
-0.19183196 -0.114289574 -0.08118833 -0.08613767 0.20936541 0.14103845 -0.2306666 0.22247717
0.21788332 0.15709211 0.2900122 0.08122885 0.27965546 -0.2568453 0.15147267 0.044941187
-0.09978935 0.27450532 -0.20634185 0.24030344 -0.2992662 -0.095359065 0.26363406 -0.25675306
0.1629807 -0.28264078 -0.08063036 0.06737902 0.022631466 0.29364145 -0.29523167 0.15371105
-0.22511911 -0.21999492 0.11241642 0.24117681 -0.26753715 0.11939708 -0.120159626 0.2454758
0.2839391 0.26807797 -0.026443183 0.210154 -0.28977287 0.22373693 0.27795985 0.23337996
-0.2850758 -0.21482895 0.07295801 -0.055238035 -0.23686795 0.24941395 0.12138107 0.26754752
-0.17516015 -0.19948548 0.29090005 0.2576169 0.1515683 -0.07375389 -0.12516043 0.25595433
-0.036660116 -0.061473683 0.26080966 -0.15269607 0.097206496 -0.047513418 -0.15738516 -0.08720149
-0.16717069 0.23147325 -0.29755536 -0.08937924 0.032806806 -0.20534718 0.25386056 -0.19274801
0.25919557 -0.2816171 -0.27768588 0.17901066 -0.23210797 0.22307868 -0.12747444 0.2097276
0.049984366 -0.28752875 -0.00794994 -0.13746427 -0.076206855 -0.26277927 -0.3053276 -0.22208276
0.19578573 -0.278772 0.21462466 0.09222721 -0.1715646 0.25743747 0.14739497 -0.13909188
0.2217931 -0.10353667 -0.21701482 -0.19102074 0.09177574 0.057996843 -0.022716688 0.11136596
0.23295815 -0.094832875 0.14708826 -0.16657399 0.22641633 0.22495747 -0.15071654 -0.18067546
0.28677112 0.28970948 0.12656927 -0.18672922 -0.025292123 0.16025639 0.2113395 0.21692112
0.16853663 0.24031435 -0.24662633 0.029570978 0.012307491 0.09291428 0.12054653 0.23099697
-0.19049704 0.15731551 0.09921372 -0.23360224 0.18520744 0.2287815 -0.08130563 0.07586357

classifier.bias f4 [6]
00000000: eae3 49bd 4503 41be f2b7 463e 0364 39bd
00000010: acb0 803e 980e 143e
-0.04928962 -0.18848903 0.19406107 -0.045261394 0.2513479 0.14458692
